Rank: 1
Path: model2_lr0.0004_dr0.25_ks3_ly2_nd512_augTrue_balFalse\model2_lr0.0004_dr0.25_ks3_ly2_nd512_augTrue_balFalse.h5
f1: 0.9046385110833276
Model
Model: "sequential_6"
_________________________________________________________________
Layer (type)                 Output Shape              Param #   
=================================================================
conv2d_24 (Conv2D)           (None, 32, 32, 64)        1792      
_________________________________________________________________
conv2d_25 (Conv2D)           (None, 32, 32, 64)        36928     
_________________________________________________________________
max_pooling2d_6 (MaxPooling2 (None, 16, 16, 64)        0         
_________________________________________________________________
conv2d_26 (Conv2D)           (None, 16, 16, 128)       73856     
_________________________________________________________________
conv2d_27 (Conv2D)           (None, 16, 16, 128)       147584    
_________________________________________________________________
global_average_pooling2d_6 ( (None, 128)               0         
_________________________________________________________________
dense_18 (Dense)             (None, 512)               66048     
_________________________________________________________________
dropout_12 (Dropout)         (None, 512)               0         
_________________________________________________________________
dense_19 (Dense)             (None, 512)               262656    
_________________________________________________________________
dropout_13 (Dropout)         (None, 512)               0         
_________________________________________________________________
dense_20 (Dense)             (None, 9)                 4617      
=================================================================
Total params: 593,481
Trainable params: 593,481
Non-trainable params: 0
_________________________________________________________________


Rank: 2
Path: model2_lr0.00035_dr0.3_ks3_ly2_nd512_augTrue_balFalse\model2_lr0.00035_dr0.3_ks3_ly2_nd512_augTrue_balFalse.h5
f1: 0.904243983866572
Model
Model: "sequential_4"
_________________________________________________________________
Layer (type)                 Output Shape              Param #   
=================================================================
conv2d_16 (Conv2D)           (None, 32, 32, 64)        1792      
_________________________________________________________________
conv2d_17 (Conv2D)           (None, 32, 32, 64)        36928     
_________________________________________________________________
max_pooling2d_4 (MaxPooling2 (None, 16, 16, 64)        0         
_________________________________________________________________
conv2d_18 (Conv2D)           (None, 16, 16, 128)       73856     
_________________________________________________________________
conv2d_19 (Conv2D)           (None, 16, 16, 128)       147584    
_________________________________________________________________
global_average_pooling2d_4 ( (None, 128)               0         
_________________________________________________________________
dense_12 (Dense)             (None, 512)               66048     
_________________________________________________________________
dropout_8 (Dropout)          (None, 512)               0         
_________________________________________________________________
dense_13 (Dense)             (None, 512)               262656    
_________________________________________________________________
dropout_9 (Dropout)          (None, 512)               0         
_________________________________________________________________
dense_14 (Dense)             (None, 9)                 4617      
=================================================================
Total params: 593,481
Trainable params: 593,481
Non-trainable params: 0
_________________________________________________________________


Rank: 3
Path: model_lr0.0001_dr0.25_ks3_ly2_nd512_augTrue_balFalse\model_lr0.0001_dr0.25_ks3_ly2_nd512_augTrue_balFalse.h5
f1: 0.9032792431829437
Model
Model: "sequential_12"
_________________________________________________________________
Layer (type)                 Output Shape              Param #   
=================================================================
conv2d_78 (Conv2D)           (None, 32, 32, 64)        1792      
_________________________________________________________________
conv2d_79 (Conv2D)           (None, 32, 32, 64)        36928     
_________________________________________________________________
max_pooling2d_27 (MaxPooling (None, 16, 16, 64)        0         
_________________________________________________________________
conv2d_80 (Conv2D)           (None, 16, 16, 128)       73856     
_________________________________________________________________
conv2d_81 (Conv2D)           (None, 16, 16, 128)       147584    
_________________________________________________________________
global_average_pooling2d_12  (None, 128)               0         
_________________________________________________________________
dense_36 (Dense)             (None, 512)               66048     
_________________________________________________________________
dropout_24 (Dropout)         (None, 512)               0         
_________________________________________________________________
dense_37 (Dense)             (None, 512)               262656    
_________________________________________________________________
dropout_25 (Dropout)         (None, 512)               0         
_________________________________________________________________
dense_38 (Dense)             (None, 9)                 4617      
=================================================================
Total params: 593,481
Trainable params: 593,481
Non-trainable params: 0
_________________________________________________________________


Rank: 4
Path: model2_lr0.0004_dr0.2_ks3_ly2_nd512_augTrue_balFalse\model2_lr0.0004_dr0.2_ks3_ly2_nd512_augTrue_balFalse.h5
f1: 0.8975438222087018
Model
Model: "sequential"
_________________________________________________________________
Layer (type)                 Output Shape              Param #   
=================================================================
conv2d (Conv2D)              (None, 32, 32, 64)        1792      
_________________________________________________________________
conv2d_1 (Conv2D)            (None, 32, 32, 64)        36928     
_________________________________________________________________
max_pooling2d (MaxPooling2D) (None, 16, 16, 64)        0         
_________________________________________________________________
conv2d_2 (Conv2D)            (None, 16, 16, 128)       73856     
_________________________________________________________________
conv2d_3 (Conv2D)            (None, 16, 16, 128)       147584    
_________________________________________________________________
global_average_pooling2d (Gl (None, 128)               0         
_________________________________________________________________
dense (Dense)                (None, 512)               66048     
_________________________________________________________________
dropout (Dropout)            (None, 512)               0         
_________________________________________________________________
dense_1 (Dense)              (None, 512)               262656    
_________________________________________________________________
dropout_1 (Dropout)          (None, 512)               0         
_________________________________________________________________
dense_2 (Dense)              (None, 9)                 4617      
=================================================================
Total params: 593,481
Trainable params: 593,481
Non-trainable params: 0
_________________________________________________________________


Rank: 5
Path: model_lr0.0005_dr0.25_ks3_ly2_nd512_augTrue_balFalse\model_lr0.0005_dr0.25_ks3_ly2_nd512_augTrue_balFalse.h5
f1: 0.8964369144270863
Model
Model: "sequential_6"
_________________________________________________________________
Layer (type)                 Output Shape              Param #   
=================================================================
conv2d_24 (Conv2D)           (None, 32, 32, 64)        1792      
_________________________________________________________________
conv2d_25 (Conv2D)           (None, 32, 32, 64)        36928     
_________________________________________________________________
max_pooling2d_6 (MaxPooling2 (None, 16, 16, 64)        0         
_________________________________________________________________
conv2d_26 (Conv2D)           (None, 16, 16, 128)       73856     
_________________________________________________________________
conv2d_27 (Conv2D)           (None, 16, 16, 128)       147584    
_________________________________________________________________
global_average_pooling2d_6 ( (None, 128)               0         
_________________________________________________________________
dense_18 (Dense)             (None, 512)               66048     
_________________________________________________________________
dropout_12 (Dropout)         (None, 512)               0         
_________________________________________________________________
dense_19 (Dense)             (None, 512)               262656    
_________________________________________________________________
dropout_13 (Dropout)         (None, 512)               0         
_________________________________________________________________
dense_20 (Dense)             (None, 9)                 4617      
=================================================================
Total params: 593,481
Trainable params: 593,481
Non-trainable params: 0
_________________________________________________________________


Rank: 6
Path: model2_lr0.00035_dr0.25_ks3_ly2_nd512_augTrue_balFalse\model2_lr0.00035_dr0.25_ks3_ly2_nd512_augTrue_balFalse.h5
f1: 0.8951756397923387
Model
Model: "sequential_2"
_________________________________________________________________
Layer (type)                 Output Shape              Param #   
=================================================================
conv2d_8 (Conv2D)            (None, 32, 32, 64)        1792      
_________________________________________________________________
conv2d_9 (Conv2D)            (None, 32, 32, 64)        36928     
_________________________________________________________________
max_pooling2d_2 (MaxPooling2 (None, 16, 16, 64)        0         
_________________________________________________________________
conv2d_10 (Conv2D)           (None, 16, 16, 128)       73856     
_________________________________________________________________
conv2d_11 (Conv2D)           (None, 16, 16, 128)       147584    
_________________________________________________________________
global_average_pooling2d_2 ( (None, 128)               0         
_________________________________________________________________
dense_6 (Dense)              (None, 512)               66048     
_________________________________________________________________
dropout_4 (Dropout)          (None, 512)               0         
_________________________________________________________________
dense_7 (Dense)              (None, 512)               262656    
_________________________________________________________________
dropout_5 (Dropout)          (None, 512)               0         
_________________________________________________________________
dense_8 (Dense)              (None, 9)                 4617      
=================================================================
Total params: 593,481
Trainable params: 593,481
Non-trainable params: 0
_________________________________________________________________


Rank: 7
Path: model2_lr0.00045_dr0.25_ks3_ly2_nd512_augTrue_balFalse\model2_lr0.00045_dr0.25_ks3_ly2_nd512_augTrue_balFalse.h5
f1: 0.8940447000720977
Model
Model: "sequential_7"
_________________________________________________________________
Layer (type)                 Output Shape              Param #   
=================================================================
conv2d_28 (Conv2D)           (None, 32, 32, 64)        1792      
_________________________________________________________________
conv2d_29 (Conv2D)           (None, 32, 32, 64)        36928     
_________________________________________________________________
max_pooling2d_7 (MaxPooling2 (None, 16, 16, 64)        0         
_________________________________________________________________
conv2d_30 (Conv2D)           (None, 16, 16, 128)       73856     
_________________________________________________________________
conv2d_31 (Conv2D)           (None, 16, 16, 128)       147584    
_________________________________________________________________
global_average_pooling2d_7 ( (None, 128)               0         
_________________________________________________________________
dense_21 (Dense)             (None, 512)               66048     
_________________________________________________________________
dropout_14 (Dropout)         (None, 512)               0         
_________________________________________________________________
dense_22 (Dense)             (None, 512)               262656    
_________________________________________________________________
dropout_15 (Dropout)         (None, 512)               0         
_________________________________________________________________
dense_23 (Dense)             (None, 9)                 4617      
=================================================================
Total params: 593,481
Trainable params: 593,481
Non-trainable params: 0
_________________________________________________________________


Rank: 8
Path: model2_lr0.00045_dr0.2_ks3_ly2_nd512_augTrue_balFalse\model2_lr0.00045_dr0.2_ks3_ly2_nd512_augTrue_balFalse.h5
f1: 0.8938276522207315
Model
Model: "sequential_1"
_________________________________________________________________
Layer (type)                 Output Shape              Param #   
=================================================================
conv2d_4 (Conv2D)            (None, 32, 32, 64)        1792      
_________________________________________________________________
conv2d_5 (Conv2D)            (None, 32, 32, 64)        36928     
_________________________________________________________________
max_pooling2d_1 (MaxPooling2 (None, 16, 16, 64)        0         
_________________________________________________________________
conv2d_6 (Conv2D)            (None, 16, 16, 128)       73856     
_________________________________________________________________
conv2d_7 (Conv2D)            (None, 16, 16, 128)       147584    
_________________________________________________________________
global_average_pooling2d_1 ( (None, 128)               0         
_________________________________________________________________
dense_3 (Dense)              (None, 512)               66048     
_________________________________________________________________
dropout_2 (Dropout)          (None, 512)               0         
_________________________________________________________________
dense_4 (Dense)              (None, 512)               262656    
_________________________________________________________________
dropout_3 (Dropout)          (None, 512)               0         
_________________________________________________________________
dense_5 (Dense)              (None, 9)                 4617      
=================================================================
Total params: 593,481
Trainable params: 593,481
Non-trainable params: 0
_________________________________________________________________


Rank: 9
Path: model2_lr0.00045_dr0.3_ks3_ly2_nd512_augTrue_balFalse\model2_lr0.00045_dr0.3_ks3_ly2_nd512_augTrue_balFalse.h5
f1: 0.8937097747049632
Model
Model: "sequential_3"
_________________________________________________________________
Layer (type)                 Output Shape              Param #   
=================================================================
conv2d_12 (Conv2D)           (None, 32, 32, 64)        1792      
_________________________________________________________________
conv2d_13 (Conv2D)           (None, 32, 32, 64)        36928     
_________________________________________________________________
max_pooling2d_3 (MaxPooling2 (None, 16, 16, 64)        0         
_________________________________________________________________
conv2d_14 (Conv2D)           (None, 16, 16, 128)       73856     
_________________________________________________________________
conv2d_15 (Conv2D)           (None, 16, 16, 128)       147584    
_________________________________________________________________
global_average_pooling2d_3 ( (None, 128)               0         
_________________________________________________________________
dense_9 (Dense)              (None, 512)               66048     
_________________________________________________________________
dropout_6 (Dropout)          (None, 512)               0         
_________________________________________________________________
dense_10 (Dense)             (None, 512)               262656    
_________________________________________________________________
dropout_7 (Dropout)          (None, 512)               0         
_________________________________________________________________
dense_11 (Dense)             (None, 9)                 4617      
=================================================================
Total params: 593,481
Trainable params: 593,481
Non-trainable params: 0
_________________________________________________________________


Rank: 10
Path: model_SV_GAP2_lr0.00035_dr0.15_ks3_ly2_nd256_augTrue_balFalse\model_SV_GAP2_lr0.00035_dr0.15_ks3_ly2_nd256_augTrue_balFalse.h5
f1: 0.8929061973421852
Model
Model: "sequential_1"
_________________________________________________________________
Layer (type)                 Output Shape              Param #   
=================================================================
conv2d_4 (Conv2D)            (None, 32, 32, 128)       3584      
_________________________________________________________________
conv2d_5 (Conv2D)            (None, 32, 32, 128)       147584    
_________________________________________________________________
max_pooling2d_1 (MaxPooling2 (None, 16, 16, 128)       0         
_________________________________________________________________
conv2d_6 (Conv2D)            (None, 16, 16, 256)       295168    
_________________________________________________________________
conv2d_7 (Conv2D)            (None, 16, 16, 256)       590080    
_________________________________________________________________
global_average_pooling2d_1 ( (None, 256)               0         
_________________________________________________________________
dense_3 (Dense)              (None, 256)               65792     
_________________________________________________________________
dropout_2 (Dropout)          (None, 256)               0         
_________________________________________________________________
dense_4 (Dense)              (None, 256)               65792     
_________________________________________________________________
dropout_3 (Dropout)          (None, 256)               0         
_________________________________________________________________
dense_5 (Dense)              (None, 9)                 2313      
=================================================================
Total params: 1,170,313
Trainable params: 1,170,313
Non-trainable params: 0
_________________________________________________________________


Rank: 11
Path: model2_lr0.00035_dr0.2_ks3_ly2_nd512_augTrue_balFalse\model2_lr0.00035_dr0.2_ks3_ly2_nd512_augTrue_balFalse.h5
f1: 0.8925658860664257
Model
Model: "sequential_5"
_________________________________________________________________
Layer (type)                 Output Shape              Param #   
=================================================================
conv2d_20 (Conv2D)           (None, 32, 32, 64)        1792      
_________________________________________________________________
conv2d_21 (Conv2D)           (None, 32, 32, 64)        36928     
_________________________________________________________________
max_pooling2d_5 (MaxPooling2 (None, 16, 16, 64)        0         
_________________________________________________________________
conv2d_22 (Conv2D)           (None, 16, 16, 128)       73856     
_________________________________________________________________
conv2d_23 (Conv2D)           (None, 16, 16, 128)       147584    
_________________________________________________________________
global_average_pooling2d_5 ( (None, 128)               0         
_________________________________________________________________
dense_15 (Dense)             (None, 512)               66048     
_________________________________________________________________
dropout_10 (Dropout)         (None, 512)               0         
_________________________________________________________________
dense_16 (Dense)             (None, 512)               262656    
_________________________________________________________________
dropout_11 (Dropout)         (None, 512)               0         
_________________________________________________________________
dense_17 (Dense)             (None, 9)                 4617      
=================================================================
Total params: 593,481
Trainable params: 593,481
Non-trainable params: 0
_________________________________________________________________


Rank: 12
Path: model_lr0.0005_dr0.5_ks4_ly3_nd512_augTrue_balFalse\model_lr0.0005_dr0.5_ks4_ly3_nd512_augTrue_balFalse.h5
f1: 0.8920848038600595
Model
Model: "sequential_15"
_________________________________________________________________
Layer (type)                 Output Shape              Param #   
=================================================================
conv2d_94 (Conv2D)           (None, 32, 32, 64)        3136      
_________________________________________________________________
conv2d_95 (Conv2D)           (None, 32, 32, 64)        65600     
_________________________________________________________________
max_pooling2d_32 (MaxPooling (None, 16, 16, 64)        0         
_________________________________________________________________
conv2d_96 (Conv2D)           (None, 16, 16, 128)       131200    
_________________________________________________________________
conv2d_97 (Conv2D)           (None, 16, 16, 128)       262272    
_________________________________________________________________
max_pooling2d_33 (MaxPooling (None, 8, 8, 128)         0         
_________________________________________________________________
conv2d_98 (Conv2D)           (None, 8, 8, 256)         524544    
_________________________________________________________________
conv2d_99 (Conv2D)           (None, 8, 8, 256)         1048832   
_________________________________________________________________
global_average_pooling2d_15  (None, 256)               0         
_________________________________________________________________
dense_45 (Dense)             (None, 512)               131584    
_________________________________________________________________
dropout_30 (Dropout)         (None, 512)               0         
_________________________________________________________________
dense_46 (Dense)             (None, 512)               262656    
_________________________________________________________________
dropout_31 (Dropout)         (None, 512)               0         
_________________________________________________________________
dense_47 (Dense)             (None, 9)                 4617      
=================================================================
Total params: 2,434,441
Trainable params: 2,434,441
Non-trainable params: 0
_________________________________________________________________


Rank: 13
Path: model_SV_GAP2_lr0.00045_dr0.25_ks3_ly2_nd512_augTrue_balFalse\model_SV_GAP2_lr0.00045_dr0.25_ks3_ly2_nd512_augTrue_balFalse.h5
f1: 0.8905954750212255
Model
Model: "sequential_4"
_________________________________________________________________
Layer (type)                 Output Shape              Param #   
=================================================================
conv2d_16 (Conv2D)           (None, 32, 32, 128)       3584      
_________________________________________________________________
conv2d_17 (Conv2D)           (None, 32, 32, 128)       147584    
_________________________________________________________________
max_pooling2d_4 (MaxPooling2 (None, 16, 16, 128)       0         
_________________________________________________________________
conv2d_18 (Conv2D)           (None, 16, 16, 256)       295168    
_________________________________________________________________
conv2d_19 (Conv2D)           (None, 16, 16, 256)       590080    
_________________________________________________________________
global_average_pooling2d_4 ( (None, 256)               0         
_________________________________________________________________
dense_12 (Dense)             (None, 512)               131584    
_________________________________________________________________
dropout_8 (Dropout)          (None, 512)               0         
_________________________________________________________________
dense_13 (Dense)             (None, 512)               262656    
_________________________________________________________________
dropout_9 (Dropout)          (None, 512)               0         
_________________________________________________________________
dense_14 (Dense)             (None, 9)                 4617      
=================================================================
Total params: 1,435,273
Trainable params: 1,435,273
Non-trainable params: 0
_________________________________________________________________


Rank: 14
Path: model2_lr0.0004_dr0.3_ks3_ly2_nd512_augTrue_balFalse\model2_lr0.0004_dr0.3_ks3_ly2_nd512_augTrue_balFalse.h5
f1: 0.8905027873626847
Model
Model: "sequential_8"
_________________________________________________________________
Layer (type)                 Output Shape              Param #   
=================================================================
conv2d_32 (Conv2D)           (None, 32, 32, 64)        1792      
_________________________________________________________________
conv2d_33 (Conv2D)           (None, 32, 32, 64)        36928     
_________________________________________________________________
max_pooling2d_8 (MaxPooling2 (None, 16, 16, 64)        0         
_________________________________________________________________
conv2d_34 (Conv2D)           (None, 16, 16, 128)       73856     
_________________________________________________________________
conv2d_35 (Conv2D)           (None, 16, 16, 128)       147584    
_________________________________________________________________
global_average_pooling2d_8 ( (None, 128)               0         
_________________________________________________________________
dense_24 (Dense)             (None, 512)               66048     
_________________________________________________________________
dropout_16 (Dropout)         (None, 512)               0         
_________________________________________________________________
dense_25 (Dense)             (None, 512)               262656    
_________________________________________________________________
dropout_17 (Dropout)         (None, 512)               0         
_________________________________________________________________
dense_26 (Dense)             (None, 9)                 4617      
=================================================================
Total params: 593,481
Trainable params: 593,481
Non-trainable params: 0
_________________________________________________________________


Rank: 15
Path: model_lr0.0001_dr0.5_ks4_ly3_nd256_augFalse_balFalse\model_lr0.0001_dr0.5_ks4_ly3_nd256_augFalse_balFalse.h5
f1: 0.889444922106273
Model
Model: "sequential_18"
_________________________________________________________________
Layer (type)                 Output Shape              Param #   
=================================================================
conv2d_114 (Conv2D)          (None, 32, 32, 64)        3136      
_________________________________________________________________
conv2d_115 (Conv2D)          (None, 32, 32, 64)        65600     
_________________________________________________________________
max_pooling2d_39 (MaxPooling (None, 16, 16, 64)        0         
_________________________________________________________________
conv2d_116 (Conv2D)          (None, 16, 16, 128)       131200    
_________________________________________________________________
conv2d_117 (Conv2D)          (None, 16, 16, 128)       262272    
_________________________________________________________________
max_pooling2d_40 (MaxPooling (None, 8, 8, 128)         0         
_________________________________________________________________
conv2d_118 (Conv2D)          (None, 8, 8, 256)         524544    
_________________________________________________________________
conv2d_119 (Conv2D)          (None, 8, 8, 256)         1048832   
_________________________________________________________________
global_average_pooling2d_18  (None, 256)               0         
_________________________________________________________________
dense_54 (Dense)             (None, 256)               65792     
_________________________________________________________________
dropout_36 (Dropout)         (None, 256)               0         
_________________________________________________________________
dense_55 (Dense)             (None, 256)               65792     
_________________________________________________________________
dropout_37 (Dropout)         (None, 256)               0         
_________________________________________________________________
dense_56 (Dense)             (None, 9)                 2313      
=================================================================
Total params: 2,169,481
Trainable params: 2,169,481
Non-trainable params: 0
_________________________________________________________________


Rank: 16
Path: model_lr0.0001_dr0.1_ks3_ly2_nd256_augFalse_balFalse\model_lr0.0001_dr0.1_ks3_ly2_nd256_augFalse_balFalse.h5
f1: 0.889419446181652
Model
Model: "sequential_1"
_________________________________________________________________
Layer (type)                 Output Shape              Param #   
=================================================================
conv2d_6 (Conv2D)            (None, 32, 32, 64)        1792      
_________________________________________________________________
conv2d_7 (Conv2D)            (None, 32, 32, 64)        36928     
_________________________________________________________________
max_pooling2d_2 (MaxPooling2 (None, 16, 16, 64)        0         
_________________________________________________________________
conv2d_8 (Conv2D)            (None, 16, 16, 128)       73856     
_________________________________________________________________
conv2d_9 (Conv2D)            (None, 16, 16, 128)       147584    
_________________________________________________________________
global_average_pooling2d_1 ( (None, 128)               0         
_________________________________________________________________
dense_3 (Dense)              (None, 256)               33024     
_________________________________________________________________
dropout_2 (Dropout)          (None, 256)               0         
_________________________________________________________________
dense_4 (Dense)              (None, 256)               65792     
_________________________________________________________________
dropout_3 (Dropout)          (None, 256)               0         
_________________________________________________________________
dense_5 (Dense)              (None, 9)                 2313      
=================================================================
Total params: 361,289
Trainable params: 361,289
Non-trainable params: 0
_________________________________________________________________


Rank: 17
Path: model2_lr0.0001_dr0.5_ks3_ly2_nd1024_augTrue_balTrue\model2_lr0.0001_dr0.5_ks3_ly2_nd1024_augTrue_balTrue.h5
f1: 0.887255950671258
Model
Model: "sequential_2"
_________________________________________________________________
Layer (type)                 Output Shape              Param #   
=================================================================
conv2d_8 (Conv2D)            (None, 32, 32, 64)        1792      
_________________________________________________________________
conv2d_9 (Conv2D)            (None, 32, 32, 64)        36928     
_________________________________________________________________
max_pooling2d_2 (MaxPooling2 (None, 16, 16, 64)        0         
_________________________________________________________________
conv2d_10 (Conv2D)           (None, 16, 16, 128)       73856     
_________________________________________________________________
conv2d_11 (Conv2D)           (None, 16, 16, 128)       147584    
_________________________________________________________________
global_average_pooling2d_2 ( (None, 128)               0         
_________________________________________________________________
dense_6 (Dense)              (None, 1024)              132096    
_________________________________________________________________
dropout_4 (Dropout)          (None, 1024)              0         
_________________________________________________________________
dense_7 (Dense)              (None, 1024)              1049600   
_________________________________________________________________
dropout_5 (Dropout)          (None, 1024)              0         
_________________________________________________________________
dense_8 (Dense)              (None, 9)                 9225      
=================================================================
Total params: 1,451,081
Trainable params: 1,451,081
Non-trainable params: 0
_________________________________________________________________


Rank: 18
Path: model_lr0.0001_dr0.1_ks3_ly3_nd128_augTrue_balTrue\model_lr0.0001_dr0.1_ks3_ly3_nd128_augTrue_balTrue.h5
f1: 0.8869180133665776
Model
Model: "sequential_19"
_________________________________________________________________
Layer (type)                 Output Shape              Param #   
=================================================================
conv2d_120 (Conv2D)          (None, 32, 32, 64)        1792      
_________________________________________________________________
conv2d_121 (Conv2D)          (None, 32, 32, 64)        36928     
_________________________________________________________________
max_pooling2d_41 (MaxPooling (None, 16, 16, 64)        0         
_________________________________________________________________
conv2d_122 (Conv2D)          (None, 16, 16, 128)       73856     
_________________________________________________________________
conv2d_123 (Conv2D)          (None, 16, 16, 128)       147584    
_________________________________________________________________
max_pooling2d_42 (MaxPooling (None, 8, 8, 128)         0         
_________________________________________________________________
conv2d_124 (Conv2D)          (None, 8, 8, 256)         295168    
_________________________________________________________________
conv2d_125 (Conv2D)          (None, 8, 8, 256)         590080    
_________________________________________________________________
global_average_pooling2d_19  (None, 256)               0         
_________________________________________________________________
dense_57 (Dense)             (None, 128)               32896     
_________________________________________________________________
dropout_38 (Dropout)         (None, 128)               0         
_________________________________________________________________
dense_58 (Dense)             (None, 128)               16512     
_________________________________________________________________
dropout_39 (Dropout)         (None, 128)               0         
_________________________________________________________________
dense_59 (Dense)             (None, 9)                 1161      
=================================================================
Total params: 1,195,977
Trainable params: 1,195,977
Non-trainable params: 0
_________________________________________________________________


Rank: 19
Path: model_ck\model4.h5
f1: 0.8863244068923074
Model
Model: "sequential"
_________________________________________________________________
Layer (type)                 Output Shape              Param #   
=================================================================
conv2d (Conv2D)              (None, 32, 32, 32)        896       
_________________________________________________________________
conv2d_1 (Conv2D)            (None, 32, 32, 32)        9248      
_________________________________________________________________
max_pooling2d (MaxPooling2D) (None, 16, 16, 32)        0         
_________________________________________________________________
conv2d_2 (Conv2D)            (None, 16, 16, 16)        4624      
_________________________________________________________________
conv2d_3 (Conv2D)            (None, 16, 16, 16)        2320      
_________________________________________________________________
max_pooling2d_1 (MaxPooling2 (None, 8, 8, 16)          0         
_________________________________________________________________
conv2d_4 (Conv2D)            (None, 8, 8, 8)           1160      
_________________________________________________________________
conv2d_5 (Conv2D)            (None, 8, 8, 8)           584       
_________________________________________________________________
max_pooling2d_2 (MaxPooling2 (None, 4, 4, 8)           0         
_________________________________________________________________
dropout (Dropout)            (None, 4, 4, 8)           0         
_________________________________________________________________
flatten (Flatten)            (None, 128)               0         
_________________________________________________________________
dense (Dense)                (None, 128)               16512     
_________________________________________________________________
dense_1 (Dense)              (None, 9)                 1161      
=================================================================
Total params: 36,505
Trainable params: 36,505
Non-trainable params: 0
_________________________________________________________________


Rank: 20
Path: model_lr0.0001_dr0.4_ks3_ly2_nd256_augFalse_balFalse\model_lr0.0001_dr0.4_ks3_ly2_nd256_augFalse_balFalse.h5
f1: 0.8847268272647197
Model
Model: "sequential_3"
_________________________________________________________________
Layer (type)                 Output Shape              Param #   
=================================================================
conv2d_12 (Conv2D)           (None, 32, 32, 64)        1792      
_________________________________________________________________
conv2d_13 (Conv2D)           (None, 32, 32, 64)        36928     
_________________________________________________________________
max_pooling2d_3 (MaxPooling2 (None, 16, 16, 64)        0         
_________________________________________________________________
conv2d_14 (Conv2D)           (None, 16, 16, 128)       73856     
_________________________________________________________________
conv2d_15 (Conv2D)           (None, 16, 16, 128)       147584    
_________________________________________________________________
global_average_pooling2d_3 ( (None, 128)               0         
_________________________________________________________________
dense_9 (Dense)              (None, 256)               33024     
_________________________________________________________________
dropout_6 (Dropout)          (None, 256)               0         
_________________________________________________________________
dense_10 (Dense)             (None, 256)               65792     
_________________________________________________________________
dropout_7 (Dropout)          (None, 256)               0         
_________________________________________________________________
dense_11 (Dense)             (None, 9)                 2313      
=================================================================
Total params: 361,289
Trainable params: 361,289
Non-trainable params: 0
_________________________________________________________________


Rank: 21
Path: model2_lr0.0005_dr0.25_ks3_ly2_nd1024_augTrue_balTrue\model2_lr0.0005_dr0.25_ks3_ly2_nd1024_augTrue_balTrue.h5
f1: 0.8841783815042291
Model
Model: "sequential_1"
_________________________________________________________________
Layer (type)                 Output Shape              Param #   
=================================================================
conv2d_4 (Conv2D)            (None, 32, 32, 64)        1792      
_________________________________________________________________
conv2d_5 (Conv2D)            (None, 32, 32, 64)        36928     
_________________________________________________________________
max_pooling2d_1 (MaxPooling2 (None, 16, 16, 64)        0         
_________________________________________________________________
conv2d_6 (Conv2D)            (None, 16, 16, 128)       73856     
_________________________________________________________________
conv2d_7 (Conv2D)            (None, 16, 16, 128)       147584    
_________________________________________________________________
global_average_pooling2d_1 ( (None, 128)               0         
_________________________________________________________________
dense_3 (Dense)              (None, 1024)              132096    
_________________________________________________________________
dropout_2 (Dropout)          (None, 1024)              0         
_________________________________________________________________
dense_4 (Dense)              (None, 1024)              1049600   
_________________________________________________________________
dropout_3 (Dropout)          (None, 1024)              0         
_________________________________________________________________
dense_5 (Dense)              (None, 9)                 9225      
=================================================================
Total params: 1,451,081
Trainable params: 1,451,081
Non-trainable params: 0
_________________________________________________________________


Rank: 22
Path: model_lr0.0001_dr0.1_ks3_ly3_nd256_augFalse_balFalse\model_lr0.0001_dr0.1_ks3_ly3_nd256_augFalse_balFalse.h5
f1: 0.8820017067752157
Model
Model: "sequential_17"
_________________________________________________________________
Layer (type)                 Output Shape              Param #   
=================================================================
conv2d_108 (Conv2D)          (None, 32, 32, 64)        1792      
_________________________________________________________________
conv2d_109 (Conv2D)          (None, 32, 32, 64)        36928     
_________________________________________________________________
max_pooling2d_37 (MaxPooling (None, 16, 16, 64)        0         
_________________________________________________________________
conv2d_110 (Conv2D)          (None, 16, 16, 128)       73856     
_________________________________________________________________
conv2d_111 (Conv2D)          (None, 16, 16, 128)       147584    
_________________________________________________________________
max_pooling2d_38 (MaxPooling (None, 8, 8, 128)         0         
_________________________________________________________________
conv2d_112 (Conv2D)          (None, 8, 8, 256)         295168    
_________________________________________________________________
conv2d_113 (Conv2D)          (None, 8, 8, 256)         590080    
_________________________________________________________________
global_average_pooling2d_17  (None, 256)               0         
_________________________________________________________________
dense_51 (Dense)             (None, 256)               65792     
_________________________________________________________________
dropout_34 (Dropout)         (None, 256)               0         
_________________________________________________________________
dense_52 (Dense)             (None, 256)               65792     
_________________________________________________________________
dropout_35 (Dropout)         (None, 256)               0         
_________________________________________________________________
dense_53 (Dense)             (None, 9)                 2313      
=================================================================
Total params: 1,279,305
Trainable params: 1,279,305
Non-trainable params: 0
_________________________________________________________________


Rank: 23
Path: model_lr0.0001_dr0.4_ks3_ly2_nd256_augTrue_balTrue\model_lr0.0001_dr0.4_ks3_ly2_nd256_augTrue_balTrue.h5
f1: 0.8811600611078898
Model
Model: "sequential_17"
_________________________________________________________________
Layer (type)                 Output Shape              Param #   
=================================================================
conv2d_68 (Conv2D)           (None, 32, 32, 64)        1792      
_________________________________________________________________
conv2d_69 (Conv2D)           (None, 32, 32, 64)        36928     
_________________________________________________________________
max_pooling2d_17 (MaxPooling (None, 16, 16, 64)        0         
_________________________________________________________________
conv2d_70 (Conv2D)           (None, 16, 16, 128)       73856     
_________________________________________________________________
conv2d_71 (Conv2D)           (None, 16, 16, 128)       147584    
_________________________________________________________________
global_average_pooling2d_17  (None, 128)               0         
_________________________________________________________________
dense_51 (Dense)             (None, 256)               33024     
_________________________________________________________________
dropout_34 (Dropout)         (None, 256)               0         
_________________________________________________________________
dense_52 (Dense)             (None, 256)               65792     
_________________________________________________________________
dropout_35 (Dropout)         (None, 256)               0         
_________________________________________________________________
dense_53 (Dense)             (None, 9)                 2313      
=================================================================
Total params: 361,289
Trainable params: 361,289
Non-trainable params: 0
_________________________________________________________________


Rank: 24
Path: model_lr0.0001_dr0.1_ks4_ly3_nd512_augFalse_balFalse\model_lr0.0001_dr0.1_ks4_ly3_nd512_augFalse_balFalse.h5
f1: 0.8801366165312428
Model
Model: "sequential"
_________________________________________________________________
Layer (type)                 Output Shape              Param #   
=================================================================
conv2d (Conv2D)              (None, 32, 32, 64)        3136      
_________________________________________________________________
conv2d_1 (Conv2D)            (None, 32, 32, 64)        65600     
_________________________________________________________________
max_pooling2d (MaxPooling2D) (None, 16, 16, 64)        0         
_________________________________________________________________
conv2d_2 (Conv2D)            (None, 16, 16, 128)       131200    
_________________________________________________________________
conv2d_3 (Conv2D)            (None, 16, 16, 128)       262272    
_________________________________________________________________
max_pooling2d_1 (MaxPooling2 (None, 8, 8, 128)         0         
_________________________________________________________________
conv2d_4 (Conv2D)            (None, 8, 8, 256)         524544    
_________________________________________________________________
conv2d_5 (Conv2D)            (None, 8, 8, 256)         1048832   
_________________________________________________________________
global_average_pooling2d (Gl (None, 256)               0         
_________________________________________________________________
dense (Dense)                (None, 512)               131584    
_________________________________________________________________
dropout (Dropout)            (None, 512)               0         
_________________________________________________________________
dense_1 (Dense)              (None, 512)               262656    
_________________________________________________________________
dropout_1 (Dropout)          (None, 512)               0         
_________________________________________________________________
dense_2 (Dense)              (None, 9)                 4617      
=================================================================
Total params: 2,434,441
Trainable params: 2,434,441
Non-trainable params: 0
_________________________________________________________________


Rank: 25
Path: model_lr0.001_dr0.1_ks3_ly2_nd256_augTrue_balFalse\model_lr0.001_dr0.1_ks3_ly2_nd256_augTrue_balFalse.h5
f1: 0.8799474123160642
Model
Model: "sequential_2"
_________________________________________________________________
Layer (type)                 Output Shape              Param #   
=================================================================
conv2d_8 (Conv2D)            (None, 32, 32, 64)        1792      
_________________________________________________________________
conv2d_9 (Conv2D)            (None, 32, 32, 64)        36928     
_________________________________________________________________
max_pooling2d_2 (MaxPooling2 (None, 16, 16, 64)        0         
_________________________________________________________________
conv2d_10 (Conv2D)           (None, 16, 16, 128)       73856     
_________________________________________________________________
conv2d_11 (Conv2D)           (None, 16, 16, 128)       147584    
_________________________________________________________________
global_average_pooling2d_2 ( (None, 128)               0         
_________________________________________________________________
dense_6 (Dense)              (None, 256)               33024     
_________________________________________________________________
dropout_4 (Dropout)          (None, 256)               0         
_________________________________________________________________
dense_7 (Dense)              (None, 256)               65792     
_________________________________________________________________
dropout_5 (Dropout)          (None, 256)               0         
_________________________________________________________________
dense_8 (Dense)              (None, 9)                 2313      
=================================================================
Total params: 361,289
Trainable params: 361,289
Non-trainable params: 0
_________________________________________________________________


Rank: 26
Path: model_lr0.0001_dr0.4_ks3_ly2_nd256_augFalse_balTrue\model_lr0.0001_dr0.4_ks3_ly2_nd256_augFalse_balTrue.h5
f1: 0.8794503047257073
Model
Model: "sequential_13"
_________________________________________________________________
Layer (type)                 Output Shape              Param #   
=================================================================
conv2d_52 (Conv2D)           (None, 32, 32, 64)        1792      
_________________________________________________________________
conv2d_53 (Conv2D)           (None, 32, 32, 64)        36928     
_________________________________________________________________
max_pooling2d_13 (MaxPooling (None, 16, 16, 64)        0         
_________________________________________________________________
conv2d_54 (Conv2D)           (None, 16, 16, 128)       73856     
_________________________________________________________________
conv2d_55 (Conv2D)           (None, 16, 16, 128)       147584    
_________________________________________________________________
global_average_pooling2d_13  (None, 128)               0         
_________________________________________________________________
dense_39 (Dense)             (None, 256)               33024     
_________________________________________________________________
dropout_26 (Dropout)         (None, 256)               0         
_________________________________________________________________
dense_40 (Dense)             (None, 256)               65792     
_________________________________________________________________
dropout_27 (Dropout)         (None, 256)               0         
_________________________________________________________________
dense_41 (Dense)             (None, 9)                 2313      
=================================================================
Total params: 361,289
Trainable params: 361,289
Non-trainable params: 0
_________________________________________________________________


Rank: 27
Path: model2_lr0.0001_dr0.25_ks3_ly2_nd1024_augFalse_balFalse\model2_lr0.0001_dr0.25_ks3_ly2_nd1024_augFalse_balFalse.h5
f1: 0.8791388428858463
Model
Model: "sequential_3"
_________________________________________________________________
Layer (type)                 Output Shape              Param #   
=================================================================
conv2d_12 (Conv2D)           (None, 32, 32, 64)        1792      
_________________________________________________________________
conv2d_13 (Conv2D)           (None, 32, 32, 64)        36928     
_________________________________________________________________
max_pooling2d_3 (MaxPooling2 (None, 16, 16, 64)        0         
_________________________________________________________________
conv2d_14 (Conv2D)           (None, 16, 16, 128)       73856     
_________________________________________________________________
conv2d_15 (Conv2D)           (None, 16, 16, 128)       147584    
_________________________________________________________________
global_average_pooling2d_3 ( (None, 128)               0         
_________________________________________________________________
dense_9 (Dense)              (None, 1024)              132096    
_________________________________________________________________
dropout_6 (Dropout)          (None, 1024)              0         
_________________________________________________________________
dense_10 (Dense)             (None, 1024)              1049600   
_________________________________________________________________
dropout_7 (Dropout)          (None, 1024)              0         
_________________________________________________________________
dense_11 (Dense)             (None, 9)                 9225      
=================================================================
Total params: 1,451,081
Trainable params: 1,451,081
Non-trainable params: 0
_________________________________________________________________


Rank: 28
Path: model_lr0.0001_dr0.5_ks3_ly3_nd128_augFalse_balFalse\model_lr0.0001_dr0.5_ks3_ly3_nd128_augFalse_balFalse.h5
f1: 0.8788733910011126
Model
Model: "sequential_2"
_________________________________________________________________
Layer (type)                 Output Shape              Param #   
=================================================================
conv2d_12 (Conv2D)           (None, 32, 32, 64)        1792      
_________________________________________________________________
conv2d_13 (Conv2D)           (None, 32, 32, 64)        36928     
_________________________________________________________________
max_pooling2d_4 (MaxPooling2 (None, 16, 16, 64)        0         
_________________________________________________________________
conv2d_14 (Conv2D)           (None, 16, 16, 128)       73856     
_________________________________________________________________
conv2d_15 (Conv2D)           (None, 16, 16, 128)       147584    
_________________________________________________________________
max_pooling2d_5 (MaxPooling2 (None, 8, 8, 128)         0         
_________________________________________________________________
conv2d_16 (Conv2D)           (None, 8, 8, 256)         295168    
_________________________________________________________________
conv2d_17 (Conv2D)           (None, 8, 8, 256)         590080    
_________________________________________________________________
global_average_pooling2d_2 ( (None, 256)               0         
_________________________________________________________________
dense_6 (Dense)              (None, 128)               32896     
_________________________________________________________________
dropout_4 (Dropout)          (None, 128)               0         
_________________________________________________________________
dense_7 (Dense)              (None, 128)               16512     
_________________________________________________________________
dropout_5 (Dropout)          (None, 128)               0         
_________________________________________________________________
dense_8 (Dense)              (None, 9)                 1161      
=================================================================
Total params: 1,195,977
Trainable params: 1,195,977
Non-trainable params: 0
_________________________________________________________________


Rank: 29
Path: model_lr0.0005_dr0.25_ks4_ly2_nd256_augFalse_balFalse\model_lr0.0005_dr0.25_ks4_ly2_nd256_augFalse_balFalse.h5
f1: 0.8775050938447273
Model
Model: "sequential_1"
_________________________________________________________________
Layer (type)                 Output Shape              Param #   
=================================================================
conv2d_8 (Conv2D)            (None, 32, 32, 64)        3136      
_________________________________________________________________
conv2d_9 (Conv2D)            (None, 32, 32, 64)        65600     
_________________________________________________________________
max_pooling2d_3 (MaxPooling2 (None, 16, 16, 64)        0         
_________________________________________________________________
conv2d_10 (Conv2D)           (None, 16, 16, 128)       131200    
_________________________________________________________________
conv2d_11 (Conv2D)           (None, 16, 16, 128)       262272    
_________________________________________________________________
global_average_pooling2d_1 ( (None, 128)               0         
_________________________________________________________________
dense_3 (Dense)              (None, 256)               33024     
_________________________________________________________________
dropout_2 (Dropout)          (None, 256)               0         
_________________________________________________________________
dense_4 (Dense)              (None, 256)               65792     
_________________________________________________________________
dropout_3 (Dropout)          (None, 256)               0         
_________________________________________________________________
dense_5 (Dense)              (None, 9)                 2313      
=================================================================
Total params: 563,337
Trainable params: 563,337
Non-trainable params: 0
_________________________________________________________________


Rank: 30
Path: model_SV_GAP2_lr0.00035_dr0.15_ks3_ly2_nd256_augFalse_balTrue\model_SV_GAP2_lr0.00035_dr0.15_ks3_ly2_nd256_augFalse_balTrue.h5
f1: 0.8766402591230703
Model
Model: "sequential_2"
_________________________________________________________________
Layer (type)                 Output Shape              Param #   
=================================================================
conv2d_8 (Conv2D)            (None, 32, 32, 128)       3584      
_________________________________________________________________
conv2d_9 (Conv2D)            (None, 32, 32, 128)       147584    
_________________________________________________________________
max_pooling2d_2 (MaxPooling2 (None, 16, 16, 128)       0         
_________________________________________________________________
conv2d_10 (Conv2D)           (None, 16, 16, 256)       295168    
_________________________________________________________________
conv2d_11 (Conv2D)           (None, 16, 16, 256)       590080    
_________________________________________________________________
global_average_pooling2d_2 ( (None, 256)               0         
_________________________________________________________________
dense_6 (Dense)              (None, 256)               65792     
_________________________________________________________________
dropout_4 (Dropout)          (None, 256)               0         
_________________________________________________________________
dense_7 (Dense)              (None, 256)               65792     
_________________________________________________________________
dropout_5 (Dropout)          (None, 256)               0         
_________________________________________________________________
dense_8 (Dense)              (None, 9)                 2313      
=================================================================
Total params: 1,170,313
Trainable params: 1,170,313
Non-trainable params: 0
_________________________________________________________________


Rank: 31
Path: model_lr0.0001_dr0.5_ks4_ly2_nd256_augTrue_balTrue\model_lr0.0001_dr0.5_ks4_ly2_nd256_augTrue_balTrue.h5
f1: 0.8764580466985861
Model
Model: "sequential_20"
_________________________________________________________________
Layer (type)                 Output Shape              Param #   
=================================================================
conv2d_126 (Conv2D)          (None, 32, 32, 64)        3136      
_________________________________________________________________
conv2d_127 (Conv2D)          (None, 32, 32, 64)        65600     
_________________________________________________________________
max_pooling2d_43 (MaxPooling (None, 16, 16, 64)        0         
_________________________________________________________________
conv2d_128 (Conv2D)          (None, 16, 16, 128)       131200    
_________________________________________________________________
conv2d_129 (Conv2D)          (None, 16, 16, 128)       262272    
_________________________________________________________________
global_average_pooling2d_20  (None, 128)               0         
_________________________________________________________________
dense_60 (Dense)             (None, 256)               33024     
_________________________________________________________________
dropout_40 (Dropout)         (None, 256)               0         
_________________________________________________________________
dense_61 (Dense)             (None, 256)               65792     
_________________________________________________________________
dropout_41 (Dropout)         (None, 256)               0         
_________________________________________________________________
dense_62 (Dense)             (None, 9)                 2313      
=================================================================
Total params: 563,337
Trainable params: 563,337
Non-trainable params: 0
_________________________________________________________________


Rank: 32
Path: model_SV_GAP2_lr0.00035_dr0.15_ks3_ly2_nd256_augTrue_balTrue\model_SV_GAP2_lr0.00035_dr0.15_ks3_ly2_nd256_augTrue_balTrue.h5
f1: 0.8762235740645032
Model
Model: "sequential_5"
_________________________________________________________________
Layer (type)                 Output Shape              Param #   
=================================================================
conv2d_20 (Conv2D)           (None, 32, 32, 128)       3584      
_________________________________________________________________
conv2d_21 (Conv2D)           (None, 32, 32, 128)       147584    
_________________________________________________________________
max_pooling2d_5 (MaxPooling2 (None, 16, 16, 128)       0         
_________________________________________________________________
conv2d_22 (Conv2D)           (None, 16, 16, 256)       295168    
_________________________________________________________________
conv2d_23 (Conv2D)           (None, 16, 16, 256)       590080    
_________________________________________________________________
global_average_pooling2d_5 ( (None, 256)               0         
_________________________________________________________________
dense_15 (Dense)             (None, 256)               65792     
_________________________________________________________________
dropout_10 (Dropout)         (None, 256)               0         
_________________________________________________________________
dense_16 (Dense)             (None, 256)               65792     
_________________________________________________________________
dropout_11 (Dropout)         (None, 256)               0         
_________________________________________________________________
dense_17 (Dense)             (None, 9)                 2313      
=================================================================
Total params: 1,170,313
Trainable params: 1,170,313
Non-trainable params: 0
_________________________________________________________________


Rank: 33
Path: model_lr0.001_dr0.4_ks3_ly2_nd1024_augTrue_balFalse\model_lr0.001_dr0.4_ks3_ly2_nd1024_augTrue_balFalse.h5
f1: 0.8761879233559188
Model
Model: "sequential_7"
_________________________________________________________________
Layer (type)                 Output Shape              Param #   
=================================================================
conv2d_28 (Conv2D)           (None, 32, 32, 64)        1792      
_________________________________________________________________
conv2d_29 (Conv2D)           (None, 32, 32, 64)        36928     
_________________________________________________________________
max_pooling2d_7 (MaxPooling2 (None, 16, 16, 64)        0         
_________________________________________________________________
conv2d_30 (Conv2D)           (None, 16, 16, 128)       73856     
_________________________________________________________________
conv2d_31 (Conv2D)           (None, 16, 16, 128)       147584    
_________________________________________________________________
global_average_pooling2d_7 ( (None, 128)               0         
_________________________________________________________________
dense_21 (Dense)             (None, 1024)              132096    
_________________________________________________________________
dropout_14 (Dropout)         (None, 1024)              0         
_________________________________________________________________
dense_22 (Dense)             (None, 1024)              1049600   
_________________________________________________________________
dropout_15 (Dropout)         (None, 1024)              0         
_________________________________________________________________
dense_23 (Dense)             (None, 9)                 9225      
=================================================================
Total params: 1,451,081
Trainable params: 1,451,081
Non-trainable params: 0
_________________________________________________________________


Rank: 34
Path: model_lr0.0005_dr0.25_ks3_ly4_nd512_augTrue_balTrue\model_lr0.0005_dr0.25_ks3_ly4_nd512_augTrue_balTrue.h5
f1: 0.875818899785765
Model
Model: "sequential_13"
_________________________________________________________________
Layer (type)                 Output Shape              Param #   
=================================================================
conv2d_82 (Conv2D)           (None, 32, 32, 64)        1792      
_________________________________________________________________
conv2d_83 (Conv2D)           (None, 32, 32, 64)        36928     
_________________________________________________________________
max_pooling2d_28 (MaxPooling (None, 16, 16, 64)        0         
_________________________________________________________________
conv2d_84 (Conv2D)           (None, 16, 16, 128)       73856     
_________________________________________________________________
conv2d_85 (Conv2D)           (None, 16, 16, 128)       147584    
_________________________________________________________________
max_pooling2d_29 (MaxPooling (None, 8, 8, 128)         0         
_________________________________________________________________
conv2d_86 (Conv2D)           (None, 8, 8, 256)         295168    
_________________________________________________________________
conv2d_87 (Conv2D)           (None, 8, 8, 256)         590080    
_________________________________________________________________
max_pooling2d_30 (MaxPooling (None, 4, 4, 256)         0         
_________________________________________________________________
conv2d_88 (Conv2D)           (None, 4, 4, 512)         1180160   
_________________________________________________________________
conv2d_89 (Conv2D)           (None, 4, 4, 512)         2359808   
_________________________________________________________________
global_average_pooling2d_13  (None, 512)               0         
_________________________________________________________________
dense_39 (Dense)             (None, 512)               262656    
_________________________________________________________________
dropout_26 (Dropout)         (None, 512)               0         
_________________________________________________________________
dense_40 (Dense)             (None, 512)               262656    
_________________________________________________________________
dropout_27 (Dropout)         (None, 512)               0         
_________________________________________________________________
dense_41 (Dense)             (None, 9)                 4617      
=================================================================
Total params: 5,215,305
Trainable params: 5,215,305
Non-trainable params: 0
_________________________________________________________________


Rank: 35
Path: model_SV_GAP2_lr0.00045_dr0.15_ks3_ly2_nd256_augTrue_balTrue\model_SV_GAP2_lr0.00045_dr0.15_ks3_ly2_nd256_augTrue_balTrue.h5
f1: 0.8753713144127714
Model
Model: "sequential_6"
_________________________________________________________________
Layer (type)                 Output Shape              Param #   
=================================================================
conv2d_24 (Conv2D)           (None, 32, 32, 128)       3584      
_________________________________________________________________
conv2d_25 (Conv2D)           (None, 32, 32, 128)       147584    
_________________________________________________________________
max_pooling2d_6 (MaxPooling2 (None, 16, 16, 128)       0         
_________________________________________________________________
conv2d_26 (Conv2D)           (None, 16, 16, 256)       295168    
_________________________________________________________________
conv2d_27 (Conv2D)           (None, 16, 16, 256)       590080    
_________________________________________________________________
global_average_pooling2d_6 ( (None, 256)               0         
_________________________________________________________________
dense_18 (Dense)             (None, 256)               65792     
_________________________________________________________________
dropout_12 (Dropout)         (None, 256)               0         
_________________________________________________________________
dense_19 (Dense)             (None, 256)               65792     
_________________________________________________________________
dropout_13 (Dropout)         (None, 256)               0         
_________________________________________________________________
dense_20 (Dense)             (None, 9)                 2313      
=================================================================
Total params: 1,170,313
Trainable params: 1,170,313
Non-trainable params: 0
_________________________________________________________________


Rank: 36
Path: model_lr0.0001_dr0.4_ks3_ly2_nd512_augTrue_balTrue\model_lr0.0001_dr0.4_ks3_ly2_nd512_augTrue_balTrue.h5
f1: 0.8745365080069766
Model
Model: "sequential_16"
_________________________________________________________________
Layer (type)                 Output Shape              Param #   
=================================================================
conv2d_64 (Conv2D)           (None, 32, 32, 64)        1792      
_________________________________________________________________
conv2d_65 (Conv2D)           (None, 32, 32, 64)        36928     
_________________________________________________________________
max_pooling2d_16 (MaxPooling (None, 16, 16, 64)        0         
_________________________________________________________________
conv2d_66 (Conv2D)           (None, 16, 16, 128)       73856     
_________________________________________________________________
conv2d_67 (Conv2D)           (None, 16, 16, 128)       147584    
_________________________________________________________________
global_average_pooling2d_16  (None, 128)               0         
_________________________________________________________________
dense_48 (Dense)             (None, 512)               66048     
_________________________________________________________________
dropout_32 (Dropout)         (None, 512)               0         
_________________________________________________________________
dense_49 (Dense)             (None, 512)               262656    
_________________________________________________________________
dropout_33 (Dropout)         (None, 512)               0         
_________________________________________________________________
dense_50 (Dense)             (None, 9)                 4617      
=================================================================
Total params: 593,481
Trainable params: 593,481
Non-trainable params: 0
_________________________________________________________________


Rank: 37
Path: model_lr0.0005_dr0.5_ks3_ly2_nd128_augTrue_balTrue\model_lr0.0005_dr0.5_ks3_ly2_nd128_augTrue_balTrue.h5
f1: 0.873877323885124
Model
Model: "sequential_6"
_________________________________________________________________
Layer (type)                 Output Shape              Param #   
=================================================================
conv2d_38 (Conv2D)           (None, 32, 32, 64)        1792      
_________________________________________________________________
conv2d_39 (Conv2D)           (None, 32, 32, 64)        36928     
_________________________________________________________________
max_pooling2d_13 (MaxPooling (None, 16, 16, 64)        0         
_________________________________________________________________
conv2d_40 (Conv2D)           (None, 16, 16, 128)       73856     
_________________________________________________________________
conv2d_41 (Conv2D)           (None, 16, 16, 128)       147584    
_________________________________________________________________
global_average_pooling2d_6 ( (None, 128)               0         
_________________________________________________________________
dense_18 (Dense)             (None, 128)               16512     
_________________________________________________________________
dropout_12 (Dropout)         (None, 128)               0         
_________________________________________________________________
dense_19 (Dense)             (None, 128)               16512     
_________________________________________________________________
dropout_13 (Dropout)         (None, 128)               0         
_________________________________________________________________
dense_20 (Dense)             (None, 9)                 1161      
=================================================================
Total params: 294,345
Trainable params: 294,345
Non-trainable params: 0
_________________________________________________________________


Rank: 38
Path: model_lr0.0001_dr0.25_ks4_ly4_nd256_augTrue_balTrue\model_lr0.0001_dr0.25_ks4_ly4_nd256_augTrue_balTrue.h5
f1: 0.8718668224811741
Model
Model: "sequential_11"
_________________________________________________________________
Layer (type)                 Output Shape              Param #   
=================================================================
conv2d_70 (Conv2D)           (None, 32, 32, 64)        3136      
_________________________________________________________________
conv2d_71 (Conv2D)           (None, 32, 32, 64)        65600     
_________________________________________________________________
max_pooling2d_24 (MaxPooling (None, 16, 16, 64)        0         
_________________________________________________________________
conv2d_72 (Conv2D)           (None, 16, 16, 128)       131200    
_________________________________________________________________
conv2d_73 (Conv2D)           (None, 16, 16, 128)       262272    
_________________________________________________________________
max_pooling2d_25 (MaxPooling (None, 8, 8, 128)         0         
_________________________________________________________________
conv2d_74 (Conv2D)           (None, 8, 8, 256)         524544    
_________________________________________________________________
conv2d_75 (Conv2D)           (None, 8, 8, 256)         1048832   
_________________________________________________________________
max_pooling2d_26 (MaxPooling (None, 4, 4, 256)         0         
_________________________________________________________________
conv2d_76 (Conv2D)           (None, 4, 4, 512)         2097664   
_________________________________________________________________
conv2d_77 (Conv2D)           (None, 4, 4, 512)         4194816   
_________________________________________________________________
global_average_pooling2d_11  (None, 512)               0         
_________________________________________________________________
dense_33 (Dense)             (None, 256)               131328    
_________________________________________________________________
dropout_22 (Dropout)         (None, 256)               0         
_________________________________________________________________
dense_34 (Dense)             (None, 256)               65792     
_________________________________________________________________
dropout_23 (Dropout)         (None, 256)               0         
_________________________________________________________________
dense_35 (Dense)             (None, 9)                 2313      
=================================================================
Total params: 8,527,497
Trainable params: 8,527,497
Non-trainable params: 0
_________________________________________________________________


Rank: 39
Path: model_lr0.0005_dr0.4_ks3_ly2_nd256_augFalse_balFalse\model_lr0.0005_dr0.4_ks3_ly2_nd256_augFalse_balFalse.h5
f1: 0.8709806707093382
Model
Model: "sequential"
_________________________________________________________________
Layer (type)                 Output Shape              Param #   
=================================================================
conv2d (Conv2D)              (None, 32, 32, 64)        1792      
_________________________________________________________________
conv2d_1 (Conv2D)            (None, 32, 32, 64)        36928     
_________________________________________________________________
max_pooling2d (MaxPooling2D) (None, 16, 16, 64)        0         
_________________________________________________________________
conv2d_2 (Conv2D)            (None, 16, 16, 128)       73856     
_________________________________________________________________
conv2d_3 (Conv2D)            (None, 16, 16, 128)       147584    
_________________________________________________________________
global_average_pooling2d (Gl (None, 128)               0         
_________________________________________________________________
dense (Dense)                (None, 256)               33024     
_________________________________________________________________
dropout (Dropout)            (None, 256)               0         
_________________________________________________________________
dense_1 (Dense)              (None, 256)               65792     
_________________________________________________________________
dropout_1 (Dropout)          (None, 256)               0         
_________________________________________________________________
dense_2 (Dense)              (None, 9)                 2313      
=================================================================
Total params: 361,289
Trainable params: 361,289
Non-trainable params: 0
_________________________________________________________________


Rank: 40
Path: model_SV_GAP2_lr0.00035_dr0.15_ks3_ly2_nd512_augTrue_balTrue\model_SV_GAP2_lr0.00035_dr0.15_ks3_ly2_nd512_augTrue_balTrue.h5
f1: 0.8698521993700095
Model
Model: "sequential_3"
_________________________________________________________________
Layer (type)                 Output Shape              Param #   
=================================================================
conv2d_12 (Conv2D)           (None, 32, 32, 128)       3584      
_________________________________________________________________
conv2d_13 (Conv2D)           (None, 32, 32, 128)       147584    
_________________________________________________________________
max_pooling2d_3 (MaxPooling2 (None, 16, 16, 128)       0         
_________________________________________________________________
conv2d_14 (Conv2D)           (None, 16, 16, 256)       295168    
_________________________________________________________________
conv2d_15 (Conv2D)           (None, 16, 16, 256)       590080    
_________________________________________________________________
global_average_pooling2d_3 ( (None, 256)               0         
_________________________________________________________________
dense_9 (Dense)              (None, 512)               131584    
_________________________________________________________________
dropout_6 (Dropout)          (None, 512)               0         
_________________________________________________________________
dense_10 (Dense)             (None, 512)               262656    
_________________________________________________________________
dropout_7 (Dropout)          (None, 512)               0         
_________________________________________________________________
dense_11 (Dense)             (None, 9)                 4617      
=================================================================
Total params: 1,435,273
Trainable params: 1,435,273
Non-trainable params: 0
_________________________________________________________________


Rank: 41
Path: model_lr0.0001_dr0.1_ks3_ly2_nd1024_augTrue_balTrue\model_lr0.0001_dr0.1_ks3_ly2_nd1024_augTrue_balTrue.h5
f1: 0.8695419480224005
Model
Model: "sequential_11"
_________________________________________________________________
Layer (type)                 Output Shape              Param #   
=================================================================
conv2d_44 (Conv2D)           (None, 32, 32, 64)        1792      
_________________________________________________________________
conv2d_45 (Conv2D)           (None, 32, 32, 64)        36928     
_________________________________________________________________
max_pooling2d_11 (MaxPooling (None, 16, 16, 64)        0         
_________________________________________________________________
conv2d_46 (Conv2D)           (None, 16, 16, 128)       73856     
_________________________________________________________________
conv2d_47 (Conv2D)           (None, 16, 16, 128)       147584    
_________________________________________________________________
global_average_pooling2d_11  (None, 128)               0         
_________________________________________________________________
dense_33 (Dense)             (None, 1024)              132096    
_________________________________________________________________
dropout_22 (Dropout)         (None, 1024)              0         
_________________________________________________________________
dense_34 (Dense)             (None, 1024)              1049600   
_________________________________________________________________
dropout_23 (Dropout)         (None, 1024)              0         
_________________________________________________________________
dense_35 (Dense)             (None, 9)                 9225      
=================================================================
Total params: 1,451,081
Trainable params: 1,451,081
Non-trainable params: 0
_________________________________________________________________


Rank: 42
Path: model_lr0.001_dr0.1_ks3_ly3_nd512_augFalse_balFalse\model_lr0.001_dr0.1_ks3_ly3_nd512_augFalse_balFalse.h5
f1: 0.8694036355309492
Model
Model: "sequential_3"
_________________________________________________________________
Layer (type)                 Output Shape              Param #   
=================================================================
conv2d_18 (Conv2D)           (None, 32, 32, 64)        1792      
_________________________________________________________________
conv2d_19 (Conv2D)           (None, 32, 32, 64)        36928     
_________________________________________________________________
max_pooling2d_6 (MaxPooling2 (None, 16, 16, 64)        0         
_________________________________________________________________
conv2d_20 (Conv2D)           (None, 16, 16, 128)       73856     
_________________________________________________________________
conv2d_21 (Conv2D)           (None, 16, 16, 128)       147584    
_________________________________________________________________
max_pooling2d_7 (MaxPooling2 (None, 8, 8, 128)         0         
_________________________________________________________________
conv2d_22 (Conv2D)           (None, 8, 8, 256)         295168    
_________________________________________________________________
conv2d_23 (Conv2D)           (None, 8, 8, 256)         590080    
_________________________________________________________________
global_average_pooling2d_3 ( (None, 256)               0         
_________________________________________________________________
dense_9 (Dense)              (None, 512)               131584    
_________________________________________________________________
dropout_6 (Dropout)          (None, 512)               0         
_________________________________________________________________
dense_10 (Dense)             (None, 512)               262656    
_________________________________________________________________
dropout_7 (Dropout)          (None, 512)               0         
_________________________________________________________________
dense_11 (Dense)             (None, 9)                 4617      
=================================================================
Total params: 1,544,265
Trainable params: 1,544,265
Non-trainable params: 0
_________________________________________________________________


Rank: 43
Path: model_lr0.001_dr0.4_ks3_ly2_nd1024_augTrue_balTrue\model_lr0.001_dr0.4_ks3_ly2_nd1024_augTrue_balTrue.h5
f1: 0.869368604192873
Model
Model: "sequential_18"
_________________________________________________________________
Layer (type)                 Output Shape              Param #   
=================================================================
conv2d_72 (Conv2D)           (None, 32, 32, 64)        1792      
_________________________________________________________________
conv2d_73 (Conv2D)           (None, 32, 32, 64)        36928     
_________________________________________________________________
max_pooling2d_18 (MaxPooling (None, 16, 16, 64)        0         
_________________________________________________________________
conv2d_74 (Conv2D)           (None, 16, 16, 128)       73856     
_________________________________________________________________
conv2d_75 (Conv2D)           (None, 16, 16, 128)       147584    
_________________________________________________________________
global_average_pooling2d_18  (None, 128)               0         
_________________________________________________________________
dense_54 (Dense)             (None, 1024)              132096    
_________________________________________________________________
dropout_36 (Dropout)         (None, 1024)              0         
_________________________________________________________________
dense_55 (Dense)             (None, 1024)              1049600   
_________________________________________________________________
dropout_37 (Dropout)         (None, 1024)              0         
_________________________________________________________________
dense_56 (Dense)             (None, 9)                 9225      
=================================================================
Total params: 1,451,081
Trainable params: 1,451,081
Non-trainable params: 0
_________________________________________________________________


Rank: 44
Path: model_lr0.0001_dr0.1_ks3_ly2_nd256_augTrue_balTrue\model_lr0.0001_dr0.1_ks3_ly2_nd256_augTrue_balTrue.h5
f1: 0.8691970491626427
Model
Model: "sequential_1"
_________________________________________________________________
Layer (type)                 Output Shape              Param #   
=================================================================
conv2d_4 (Conv2D)            (None, 32, 32, 64)        1792      
_________________________________________________________________
conv2d_5 (Conv2D)            (None, 32, 32, 64)        36928     
_________________________________________________________________
max_pooling2d_1 (MaxPooling2 (None, 16, 16, 64)        0         
_________________________________________________________________
conv2d_6 (Conv2D)            (None, 16, 16, 128)       73856     
_________________________________________________________________
conv2d_7 (Conv2D)            (None, 16, 16, 128)       147584    
_________________________________________________________________
global_average_pooling2d_1 ( (None, 128)               0         
_________________________________________________________________
dense_3 (Dense)              (None, 256)               33024     
_________________________________________________________________
dropout_2 (Dropout)          (None, 256)               0         
_________________________________________________________________
dense_4 (Dense)              (None, 256)               65792     
_________________________________________________________________
dropout_3 (Dropout)          (None, 256)               0         
_________________________________________________________________
dense_5 (Dense)              (None, 9)                 2313      
=================================================================
Total params: 361,289
Trainable params: 361,289
Non-trainable params: 0
_________________________________________________________________


Rank: 45
Path: model_lr0.0005_dr0.1_ks3_ly2_nd512_augFalse_balFalse\model_lr0.0005_dr0.1_ks3_ly2_nd512_augFalse_balFalse.h5
f1: 0.8688980605176136
Model
Model: "sequential_14"
_________________________________________________________________
Layer (type)                 Output Shape              Param #   
=================================================================
conv2d_56 (Conv2D)           (None, 32, 32, 64)        1792      
_________________________________________________________________
conv2d_57 (Conv2D)           (None, 32, 32, 64)        36928     
_________________________________________________________________
max_pooling2d_14 (MaxPooling (None, 16, 16, 64)        0         
_________________________________________________________________
conv2d_58 (Conv2D)           (None, 16, 16, 128)       73856     
_________________________________________________________________
conv2d_59 (Conv2D)           (None, 16, 16, 128)       147584    
_________________________________________________________________
global_average_pooling2d_14  (None, 128)               0         
_________________________________________________________________
dense_42 (Dense)             (None, 512)               66048     
_________________________________________________________________
dropout_28 (Dropout)         (None, 512)               0         
_________________________________________________________________
dense_43 (Dense)             (None, 512)               262656    
_________________________________________________________________
dropout_29 (Dropout)         (None, 512)               0         
_________________________________________________________________
dense_44 (Dense)             (None, 9)                 4617      
=================================================================
Total params: 593,481
Trainable params: 593,481
Non-trainable params: 0
_________________________________________________________________


Rank: 46
Path: model2_lr0.0001_dr0.1_ks3_ly2_nd1024_augFalse_balTrue\model2_lr0.0001_dr0.1_ks3_ly2_nd1024_augFalse_balTrue.h5
f1: 0.8684290790168256
Model
Model: "sequential_5"
_________________________________________________________________
Layer (type)                 Output Shape              Param #   
=================================================================
conv2d_20 (Conv2D)           (None, 32, 32, 64)        1792      
_________________________________________________________________
conv2d_21 (Conv2D)           (None, 32, 32, 64)        36928     
_________________________________________________________________
max_pooling2d_5 (MaxPooling2 (None, 16, 16, 64)        0         
_________________________________________________________________
conv2d_22 (Conv2D)           (None, 16, 16, 128)       73856     
_________________________________________________________________
conv2d_23 (Conv2D)           (None, 16, 16, 128)       147584    
_________________________________________________________________
global_average_pooling2d_5 ( (None, 128)               0         
_________________________________________________________________
dense_15 (Dense)             (None, 1024)              132096    
_________________________________________________________________
dropout_10 (Dropout)         (None, 1024)              0         
_________________________________________________________________
dense_16 (Dense)             (None, 1024)              1049600   
_________________________________________________________________
dropout_11 (Dropout)         (None, 1024)              0         
_________________________________________________________________
dense_17 (Dense)             (None, 9)                 9225      
=================================================================
Total params: 1,451,081
Trainable params: 1,451,081
Non-trainable params: 0
_________________________________________________________________


Rank: 47
Path: model_lr0.0001_dr0.1_ks3_ly2_nd512_augFalse_balTrue\model_lr0.0001_dr0.1_ks3_ly2_nd512_augFalse_balTrue.h5
f1: 0.8680659687565366
Model
Model: "sequential_4"
_________________________________________________________________
Layer (type)                 Output Shape              Param #   
=================================================================
conv2d_16 (Conv2D)           (None, 32, 32, 64)        1792      
_________________________________________________________________
conv2d_17 (Conv2D)           (None, 32, 32, 64)        36928     
_________________________________________________________________
max_pooling2d_4 (MaxPooling2 (None, 16, 16, 64)        0         
_________________________________________________________________
conv2d_18 (Conv2D)           (None, 16, 16, 128)       73856     
_________________________________________________________________
conv2d_19 (Conv2D)           (None, 16, 16, 128)       147584    
_________________________________________________________________
global_average_pooling2d_4 ( (None, 128)               0         
_________________________________________________________________
dense_12 (Dense)             (None, 512)               66048     
_________________________________________________________________
dropout_8 (Dropout)          (None, 512)               0         
_________________________________________________________________
dense_13 (Dense)             (None, 512)               262656    
_________________________________________________________________
dropout_9 (Dropout)          (None, 512)               0         
_________________________________________________________________
dense_14 (Dense)             (None, 9)                 4617      
=================================================================
Total params: 593,481
Trainable params: 593,481
Non-trainable params: 0
_________________________________________________________________


Rank: 48
Path: model_lr0.0005_dr0.4_ks3_ly2_nd1024_augFalse_balTrue\model_lr0.0005_dr0.4_ks3_ly2_nd1024_augFalse_balTrue.h5
f1: 0.867617637912162
Model
Model: "sequential_8"
_________________________________________________________________
Layer (type)                 Output Shape              Param #   
=================================================================
conv2d_32 (Conv2D)           (None, 32, 32, 64)        1792      
_________________________________________________________________
conv2d_33 (Conv2D)           (None, 32, 32, 64)        36928     
_________________________________________________________________
max_pooling2d_8 (MaxPooling2 (None, 16, 16, 64)        0         
_________________________________________________________________
conv2d_34 (Conv2D)           (None, 16, 16, 128)       73856     
_________________________________________________________________
conv2d_35 (Conv2D)           (None, 16, 16, 128)       147584    
_________________________________________________________________
global_average_pooling2d_8 ( (None, 128)               0         
_________________________________________________________________
dense_24 (Dense)             (None, 1024)              132096    
_________________________________________________________________
dropout_16 (Dropout)         (None, 1024)              0         
_________________________________________________________________
dense_25 (Dense)             (None, 1024)              1049600   
_________________________________________________________________
dropout_17 (Dropout)         (None, 1024)              0         
_________________________________________________________________
dense_26 (Dense)             (None, 9)                 9225      
=================================================================
Total params: 1,451,081
Trainable params: 1,451,081
Non-trainable params: 0
_________________________________________________________________


Rank: 49
Path: model_lr0.0005_dr0.5_ks3_ly4_nd256_augFalse_balFalse\model_lr0.0005_dr0.5_ks3_ly4_nd256_augFalse_balFalse.h5
f1: 0.8671779533756389
Model
Model: "sequential_16"
_________________________________________________________________
Layer (type)                 Output Shape              Param #   
=================================================================
conv2d_100 (Conv2D)          (None, 32, 32, 64)        1792      
_________________________________________________________________
conv2d_101 (Conv2D)          (None, 32, 32, 64)        36928     
_________________________________________________________________
max_pooling2d_34 (MaxPooling (None, 16, 16, 64)        0         
_________________________________________________________________
conv2d_102 (Conv2D)          (None, 16, 16, 128)       73856     
_________________________________________________________________
conv2d_103 (Conv2D)          (None, 16, 16, 128)       147584    
_________________________________________________________________
max_pooling2d_35 (MaxPooling (None, 8, 8, 128)         0         
_________________________________________________________________
conv2d_104 (Conv2D)          (None, 8, 8, 256)         295168    
_________________________________________________________________
conv2d_105 (Conv2D)          (None, 8, 8, 256)         590080    
_________________________________________________________________
max_pooling2d_36 (MaxPooling (None, 4, 4, 256)         0         
_________________________________________________________________
conv2d_106 (Conv2D)          (None, 4, 4, 512)         1180160   
_________________________________________________________________
conv2d_107 (Conv2D)          (None, 4, 4, 512)         2359808   
_________________________________________________________________
global_average_pooling2d_16  (None, 512)               0         
_________________________________________________________________
dense_48 (Dense)             (None, 256)               131328    
_________________________________________________________________
dropout_32 (Dropout)         (None, 256)               0         
_________________________________________________________________
dense_49 (Dense)             (None, 256)               65792     
_________________________________________________________________
dropout_33 (Dropout)         (None, 256)               0         
_________________________________________________________________
dense_50 (Dense)             (None, 9)                 2313      
=================================================================
Total params: 4,884,809
Trainable params: 4,884,809
Non-trainable params: 0
_________________________________________________________________


Rank: 50
Path: model_SV_GAP2_lr0.0004_dr0.25_ks3_ly2_nd256_augFalse_balFalse\model_SV_GAP2_lr0.0004_dr0.25_ks3_ly2_nd256_augFalse_balFalse.h5
f1: 0.8666835269993647
Model
Model: "sequential"
_________________________________________________________________
Layer (type)                 Output Shape              Param #   
=================================================================
conv2d (Conv2D)              (None, 32, 32, 128)       3584      
_________________________________________________________________
conv2d_1 (Conv2D)            (None, 32, 32, 128)       147584    
_________________________________________________________________
max_pooling2d (MaxPooling2D) (None, 16, 16, 128)       0         
_________________________________________________________________
conv2d_2 (Conv2D)            (None, 16, 16, 256)       295168    
_________________________________________________________________
conv2d_3 (Conv2D)            (None, 16, 16, 256)       590080    
_________________________________________________________________
global_average_pooling2d (Gl (None, 256)               0         
_________________________________________________________________
dense (Dense)                (None, 256)               65792     
_________________________________________________________________
dropout (Dropout)            (None, 256)               0         
_________________________________________________________________
dense_1 (Dense)              (None, 256)               65792     
_________________________________________________________________
dropout_1 (Dropout)          (None, 256)               0         
_________________________________________________________________
dense_2 (Dense)              (None, 9)                 2313      
=================================================================
Total params: 1,170,313
Trainable params: 1,170,313
Non-trainable params: 0
_________________________________________________________________


Rank: 51
Path: model_lr0.0001_dr0.25_ks3_ly2_nd1024_augFalse_balTrue\model_lr0.0001_dr0.25_ks3_ly2_nd1024_augFalse_balTrue.h5
f1: 0.8662330567261919
Model
Model: "sequential_10"
_________________________________________________________________
Layer (type)                 Output Shape              Param #   
=================================================================
conv2d_40 (Conv2D)           (None, 32, 32, 64)        1792      
_________________________________________________________________
conv2d_41 (Conv2D)           (None, 32, 32, 64)        36928     
_________________________________________________________________
max_pooling2d_10 (MaxPooling (None, 16, 16, 64)        0         
_________________________________________________________________
conv2d_42 (Conv2D)           (None, 16, 16, 128)       73856     
_________________________________________________________________
conv2d_43 (Conv2D)           (None, 16, 16, 128)       147584    
_________________________________________________________________
global_average_pooling2d_10  (None, 128)               0         
_________________________________________________________________
dense_30 (Dense)             (None, 1024)              132096    
_________________________________________________________________
dropout_20 (Dropout)         (None, 1024)              0         
_________________________________________________________________
dense_31 (Dense)             (None, 1024)              1049600   
_________________________________________________________________
dropout_21 (Dropout)         (None, 1024)              0         
_________________________________________________________________
dense_32 (Dense)             (None, 9)                 9225      
=================================================================
Total params: 1,451,081
Trainable params: 1,451,081
Non-trainable params: 0
_________________________________________________________________


Rank: 52
Path: model_lr0.0005_dr0.25_ks3_ly3_nd256_augFalse_balTrue\model_lr0.0005_dr0.25_ks3_ly3_nd256_augFalse_balTrue.h5
f1: 0.8646896020998946
Model
Model: "sequential_7"
_________________________________________________________________
Layer (type)                 Output Shape              Param #   
=================================================================
conv2d_42 (Conv2D)           (None, 32, 32, 64)        1792      
_________________________________________________________________
conv2d_43 (Conv2D)           (None, 32, 32, 64)        36928     
_________________________________________________________________
max_pooling2d_14 (MaxPooling (None, 16, 16, 64)        0         
_________________________________________________________________
conv2d_44 (Conv2D)           (None, 16, 16, 128)       73856     
_________________________________________________________________
conv2d_45 (Conv2D)           (None, 16, 16, 128)       147584    
_________________________________________________________________
max_pooling2d_15 (MaxPooling (None, 8, 8, 128)         0         
_________________________________________________________________
conv2d_46 (Conv2D)           (None, 8, 8, 256)         295168    
_________________________________________________________________
conv2d_47 (Conv2D)           (None, 8, 8, 256)         590080    
_________________________________________________________________
global_average_pooling2d_7 ( (None, 256)               0         
_________________________________________________________________
dense_21 (Dense)             (None, 256)               65792     
_________________________________________________________________
dropout_14 (Dropout)         (None, 256)               0         
_________________________________________________________________
dense_22 (Dense)             (None, 256)               65792     
_________________________________________________________________
dropout_15 (Dropout)         (None, 256)               0         
_________________________________________________________________
dense_23 (Dense)             (None, 9)                 2313      
=================================================================
Total params: 1,279,305
Trainable params: 1,279,305
Non-trainable params: 0
_________________________________________________________________


Rank: 53
Path: model_lr0.001_dr0.25_ks3_ly2_nd128_augFalse_balFalse\model_lr0.001_dr0.25_ks3_ly2_nd128_augFalse_balFalse.h5
f1: 0.8634879028563403
Model
Model: "sequential_14"
_________________________________________________________________
Layer (type)                 Output Shape              Param #   
=================================================================
conv2d_90 (Conv2D)           (None, 32, 32, 64)        1792      
_________________________________________________________________
conv2d_91 (Conv2D)           (None, 32, 32, 64)        36928     
_________________________________________________________________
max_pooling2d_31 (MaxPooling (None, 16, 16, 64)        0         
_________________________________________________________________
conv2d_92 (Conv2D)           (None, 16, 16, 128)       73856     
_________________________________________________________________
conv2d_93 (Conv2D)           (None, 16, 16, 128)       147584    
_________________________________________________________________
global_average_pooling2d_14  (None, 128)               0         
_________________________________________________________________
dense_42 (Dense)             (None, 128)               16512     
_________________________________________________________________
dropout_28 (Dropout)         (None, 128)               0         
_________________________________________________________________
dense_43 (Dense)             (None, 128)               16512     
_________________________________________________________________
dropout_29 (Dropout)         (None, 128)               0         
_________________________________________________________________
dense_44 (Dense)             (None, 9)                 1161      
=================================================================
Total params: 294,345
Trainable params: 294,345
Non-trainable params: 0
_________________________________________________________________


Rank: 54
Path: model2_lr0.0005_dr0.1_ks3_ly2_nd1024_augFalse_balTrue\model2_lr0.0005_dr0.1_ks3_ly2_nd1024_augFalse_balTrue.h5
f1: 0.8633999033456816
Model
Model: "sequential"
_________________________________________________________________
Layer (type)                 Output Shape              Param #   
=================================================================
conv2d (Conv2D)              (None, 32, 32, 64)        1792      
_________________________________________________________________
conv2d_1 (Conv2D)            (None, 32, 32, 64)        36928     
_________________________________________________________________
max_pooling2d (MaxPooling2D) (None, 16, 16, 64)        0         
_________________________________________________________________
conv2d_2 (Conv2D)            (None, 16, 16, 128)       73856     
_________________________________________________________________
conv2d_3 (Conv2D)            (None, 16, 16, 128)       147584    
_________________________________________________________________
global_average_pooling2d (Gl (None, 128)               0         
_________________________________________________________________
dense (Dense)                (None, 1024)              132096    
_________________________________________________________________
dropout (Dropout)            (None, 1024)              0         
_________________________________________________________________
dense_1 (Dense)              (None, 1024)              1049600   
_________________________________________________________________
dropout_1 (Dropout)          (None, 1024)              0         
_________________________________________________________________
dense_2 (Dense)              (None, 9)                 9225      
=================================================================
Total params: 1,451,081
Trainable params: 1,451,081
Non-trainable params: 0
_________________________________________________________________


Rank: 55
Path: model_lr0.0005_dr0.5_ks4_ly3_nd256_augFalse_balTrue\model_lr0.0005_dr0.5_ks4_ly3_nd256_augFalse_balTrue.h5
f1: 0.8631028524680013
Model
Model: "sequential_5"
_________________________________________________________________
Layer (type)                 Output Shape              Param #   
=================================================================
conv2d_32 (Conv2D)           (None, 32, 32, 64)        3136      
_________________________________________________________________
conv2d_33 (Conv2D)           (None, 32, 32, 64)        65600     
_________________________________________________________________
max_pooling2d_11 (MaxPooling (None, 16, 16, 64)        0         
_________________________________________________________________
conv2d_34 (Conv2D)           (None, 16, 16, 128)       131200    
_________________________________________________________________
conv2d_35 (Conv2D)           (None, 16, 16, 128)       262272    
_________________________________________________________________
max_pooling2d_12 (MaxPooling (None, 8, 8, 128)         0         
_________________________________________________________________
conv2d_36 (Conv2D)           (None, 8, 8, 256)         524544    
_________________________________________________________________
conv2d_37 (Conv2D)           (None, 8, 8, 256)         1048832   
_________________________________________________________________
global_average_pooling2d_5 ( (None, 256)               0         
_________________________________________________________________
dense_15 (Dense)             (None, 256)               65792     
_________________________________________________________________
dropout_10 (Dropout)         (None, 256)               0         
_________________________________________________________________
dense_16 (Dense)             (None, 256)               65792     
_________________________________________________________________
dropout_11 (Dropout)         (None, 256)               0         
_________________________________________________________________
dense_17 (Dense)             (None, 9)                 2313      
=================================================================
Total params: 2,169,481
Trainable params: 2,169,481
Non-trainable params: 0
_________________________________________________________________


Rank: 56
Path: model_lr0.0005_dr0.5_ks3_ly4_nd128_augFalse_balFalse\model_lr0.0005_dr0.5_ks3_ly4_nd128_augFalse_balFalse.h5
f1: 0.8620960480735124
Model
Model: "sequential_8"
_________________________________________________________________
Layer (type)                 Output Shape              Param #   
=================================================================
conv2d_48 (Conv2D)           (None, 32, 32, 64)        1792      
_________________________________________________________________
conv2d_49 (Conv2D)           (None, 32, 32, 64)        36928     
_________________________________________________________________
max_pooling2d_16 (MaxPooling (None, 16, 16, 64)        0         
_________________________________________________________________
conv2d_50 (Conv2D)           (None, 16, 16, 128)       73856     
_________________________________________________________________
conv2d_51 (Conv2D)           (None, 16, 16, 128)       147584    
_________________________________________________________________
max_pooling2d_17 (MaxPooling (None, 8, 8, 128)         0         
_________________________________________________________________
conv2d_52 (Conv2D)           (None, 8, 8, 256)         295168    
_________________________________________________________________
conv2d_53 (Conv2D)           (None, 8, 8, 256)         590080    
_________________________________________________________________
max_pooling2d_18 (MaxPooling (None, 4, 4, 256)         0         
_________________________________________________________________
conv2d_54 (Conv2D)           (None, 4, 4, 512)         1180160   
_________________________________________________________________
conv2d_55 (Conv2D)           (None, 4, 4, 512)         2359808   
_________________________________________________________________
global_average_pooling2d_8 ( (None, 512)               0         
_________________________________________________________________
dense_24 (Dense)             (None, 128)               65664     
_________________________________________________________________
dropout_16 (Dropout)         (None, 128)               0         
_________________________________________________________________
dense_25 (Dense)             (None, 128)               16512     
_________________________________________________________________
dropout_17 (Dropout)         (None, 128)               0         
_________________________________________________________________
dense_26 (Dense)             (None, 9)                 1161      
=================================================================
Total params: 4,768,713
Trainable params: 4,768,713
Non-trainable params: 0
_________________________________________________________________


Rank: 57
Path: model_lr0.001_dr0.4_ks3_ly2_nd256_augFalse_balFalse\model_lr0.001_dr0.4_ks3_ly2_nd256_augFalse_balFalse.h5
f1: 0.8600477503280256
Model
Model: "sequential_12"
_________________________________________________________________
Layer (type)                 Output Shape              Param #   
=================================================================
conv2d_48 (Conv2D)           (None, 32, 32, 64)        1792      
_________________________________________________________________
conv2d_49 (Conv2D)           (None, 32, 32, 64)        36928     
_________________________________________________________________
max_pooling2d_12 (MaxPooling (None, 16, 16, 64)        0         
_________________________________________________________________
conv2d_50 (Conv2D)           (None, 16, 16, 128)       73856     
_________________________________________________________________
conv2d_51 (Conv2D)           (None, 16, 16, 128)       147584    
_________________________________________________________________
global_average_pooling2d_12  (None, 128)               0         
_________________________________________________________________
dense_36 (Dense)             (None, 256)               33024     
_________________________________________________________________
dropout_24 (Dropout)         (None, 256)               0         
_________________________________________________________________
dense_37 (Dense)             (None, 256)               65792     
_________________________________________________________________
dropout_25 (Dropout)         (None, 256)               0         
_________________________________________________________________
dense_38 (Dense)             (None, 9)                 2313      
=================================================================
Total params: 361,289
Trainable params: 361,289
Non-trainable params: 0
_________________________________________________________________


Rank: 58
Path: model_lr0.001_dr0.4_ks3_ly2_nd512_augFalse_balTrue\model_lr0.001_dr0.4_ks3_ly2_nd512_augFalse_balTrue.h5
f1: 0.8595286130920358
Model
Model: "sequential_15"
_________________________________________________________________
Layer (type)                 Output Shape              Param #   
=================================================================
conv2d_60 (Conv2D)           (None, 32, 32, 64)        1792      
_________________________________________________________________
conv2d_61 (Conv2D)           (None, 32, 32, 64)        36928     
_________________________________________________________________
max_pooling2d_15 (MaxPooling (None, 16, 16, 64)        0         
_________________________________________________________________
conv2d_62 (Conv2D)           (None, 16, 16, 128)       73856     
_________________________________________________________________
conv2d_63 (Conv2D)           (None, 16, 16, 128)       147584    
_________________________________________________________________
global_average_pooling2d_15  (None, 128)               0         
_________________________________________________________________
dense_45 (Dense)             (None, 512)               66048     
_________________________________________________________________
dropout_30 (Dropout)         (None, 512)               0         
_________________________________________________________________
dense_46 (Dense)             (None, 512)               262656    
_________________________________________________________________
dropout_31 (Dropout)         (None, 512)               0         
_________________________________________________________________
dense_47 (Dense)             (None, 9)                 4617      
=================================================================
Total params: 593,481
Trainable params: 593,481
Non-trainable params: 0
_________________________________________________________________


Rank: 59
Path: model2_lr0.0005_dr0.25_ks3_ly2_nd256_augFalse_balTrue\model2_lr0.0005_dr0.25_ks3_ly2_nd256_augFalse_balTrue.h5
f1: 0.8588788299620785
Model
Model: "sequential_4"
_________________________________________________________________
Layer (type)                 Output Shape              Param #   
=================================================================
conv2d_16 (Conv2D)           (None, 32, 32, 64)        1792      
_________________________________________________________________
conv2d_17 (Conv2D)           (None, 32, 32, 64)        36928     
_________________________________________________________________
max_pooling2d_4 (MaxPooling2 (None, 16, 16, 64)        0         
_________________________________________________________________
conv2d_18 (Conv2D)           (None, 16, 16, 128)       73856     
_________________________________________________________________
conv2d_19 (Conv2D)           (None, 16, 16, 128)       147584    
_________________________________________________________________
global_average_pooling2d_4 ( (None, 128)               0         
_________________________________________________________________
dense_12 (Dense)             (None, 256)               33024     
_________________________________________________________________
dropout_8 (Dropout)          (None, 256)               0         
_________________________________________________________________
dense_13 (Dense)             (None, 256)               65792     
_________________________________________________________________
dropout_9 (Dropout)          (None, 256)               0         
_________________________________________________________________
dense_14 (Dense)             (None, 9)                 2313      
=================================================================
Total params: 361,289
Trainable params: 361,289
Non-trainable params: 0
_________________________________________________________________


Rank: 60
Path: model_lr0.001_dr0.1_ks3_ly2_nd512_augTrue_balTrue\model_lr0.001_dr0.1_ks3_ly2_nd512_augTrue_balTrue.h5
f1: 0.8586657851116641
Model
Model: "sequential_5"
_________________________________________________________________
Layer (type)                 Output Shape              Param #   
=================================================================
conv2d_20 (Conv2D)           (None, 32, 32, 64)        1792      
_________________________________________________________________
conv2d_21 (Conv2D)           (None, 32, 32, 64)        36928     
_________________________________________________________________
max_pooling2d_5 (MaxPooling2 (None, 16, 16, 64)        0         
_________________________________________________________________
conv2d_22 (Conv2D)           (None, 16, 16, 128)       73856     
_________________________________________________________________
conv2d_23 (Conv2D)           (None, 16, 16, 128)       147584    
_________________________________________________________________
global_average_pooling2d_5 ( (None, 128)               0         
_________________________________________________________________
dense_15 (Dense)             (None, 512)               66048     
_________________________________________________________________
dropout_10 (Dropout)         (None, 512)               0         
_________________________________________________________________
dense_16 (Dense)             (None, 512)               262656    
_________________________________________________________________
dropout_11 (Dropout)         (None, 512)               0         
_________________________________________________________________
dense_17 (Dense)             (None, 9)                 4617      
=================================================================
Total params: 593,481
Trainable params: 593,481
Non-trainable params: 0
_________________________________________________________________


Rank: 61
Path: model_lr0.0005_dr0.1_ks3_ly2_nd1024_augFalse_balFalse\model_lr0.0005_dr0.1_ks3_ly2_nd1024_augFalse_balFalse.h5
f1: 0.8561602052139856
Model
Model: "sequential_9"
_________________________________________________________________
Layer (type)                 Output Shape              Param #   
=================================================================
conv2d_36 (Conv2D)           (None, 32, 32, 64)        1792      
_________________________________________________________________
conv2d_37 (Conv2D)           (None, 32, 32, 64)        36928     
_________________________________________________________________
max_pooling2d_9 (MaxPooling2 (None, 16, 16, 64)        0         
_________________________________________________________________
conv2d_38 (Conv2D)           (None, 16, 16, 128)       73856     
_________________________________________________________________
conv2d_39 (Conv2D)           (None, 16, 16, 128)       147584    
_________________________________________________________________
global_average_pooling2d_9 ( (None, 128)               0         
_________________________________________________________________
dense_27 (Dense)             (None, 1024)              132096    
_________________________________________________________________
dropout_18 (Dropout)         (None, 1024)              0         
_________________________________________________________________
dense_28 (Dense)             (None, 1024)              1049600   
_________________________________________________________________
dropout_19 (Dropout)         (None, 1024)              0         
_________________________________________________________________
dense_29 (Dense)             (None, 9)                 9225      
=================================================================
Total params: 1,451,081
Trainable params: 1,451,081
Non-trainable params: 0
_________________________________________________________________


Rank: 62
Path: model_lr0.001_dr0.25_ks4_ly4_nd512_augFalse_balFalse\model_lr0.001_dr0.25_ks4_ly4_nd512_augFalse_balFalse.h5
f1: 0.8558503709553351
Model
Model: "sequential_9"
_________________________________________________________________
Layer (type)                 Output Shape              Param #   
=================================================================
conv2d_56 (Conv2D)           (None, 32, 32, 64)        3136      
_________________________________________________________________
conv2d_57 (Conv2D)           (None, 32, 32, 64)        65600     
_________________________________________________________________
max_pooling2d_19 (MaxPooling (None, 16, 16, 64)        0         
_________________________________________________________________
conv2d_58 (Conv2D)           (None, 16, 16, 128)       131200    
_________________________________________________________________
conv2d_59 (Conv2D)           (None, 16, 16, 128)       262272    
_________________________________________________________________
max_pooling2d_20 (MaxPooling (None, 8, 8, 128)         0         
_________________________________________________________________
conv2d_60 (Conv2D)           (None, 8, 8, 256)         524544    
_________________________________________________________________
conv2d_61 (Conv2D)           (None, 8, 8, 256)         1048832   
_________________________________________________________________
max_pooling2d_21 (MaxPooling (None, 4, 4, 256)         0         
_________________________________________________________________
conv2d_62 (Conv2D)           (None, 4, 4, 512)         2097664   
_________________________________________________________________
conv2d_63 (Conv2D)           (None, 4, 4, 512)         4194816   
_________________________________________________________________
global_average_pooling2d_9 ( (None, 512)               0         
_________________________________________________________________
dense_27 (Dense)             (None, 512)               262656    
_________________________________________________________________
dropout_18 (Dropout)         (None, 512)               0         
_________________________________________________________________
dense_28 (Dense)             (None, 512)               262656    
_________________________________________________________________
dropout_19 (Dropout)         (None, 512)               0         
_________________________________________________________________
dense_29 (Dense)             (None, 9)                 4617      
=================================================================
Total params: 8,857,993
Trainable params: 8,857,993
Non-trainable params: 0
_________________________________________________________________


Rank: 63
Path: model_lr0.0005_dr0.5_ks4_ly4_nd128_augFalse_balTrue\model_lr0.0005_dr0.5_ks4_ly4_nd128_augFalse_balTrue.h5
f1: 0.8495476277705915
Model
Model: "sequential"
_________________________________________________________________
Layer (type)                 Output Shape              Param #   
=================================================================
conv2d (Conv2D)              (None, 32, 32, 64)        3136      
_________________________________________________________________
conv2d_1 (Conv2D)            (None, 32, 32, 64)        65600     
_________________________________________________________________
max_pooling2d (MaxPooling2D) (None, 16, 16, 64)        0         
_________________________________________________________________
conv2d_2 (Conv2D)            (None, 16, 16, 128)       131200    
_________________________________________________________________
conv2d_3 (Conv2D)            (None, 16, 16, 128)       262272    
_________________________________________________________________
max_pooling2d_1 (MaxPooling2 (None, 8, 8, 128)         0         
_________________________________________________________________
conv2d_4 (Conv2D)            (None, 8, 8, 256)         524544    
_________________________________________________________________
conv2d_5 (Conv2D)            (None, 8, 8, 256)         1048832   
_________________________________________________________________
max_pooling2d_2 (MaxPooling2 (None, 4, 4, 256)         0         
_________________________________________________________________
conv2d_6 (Conv2D)            (None, 4, 4, 512)         2097664   
_________________________________________________________________
conv2d_7 (Conv2D)            (None, 4, 4, 512)         4194816   
_________________________________________________________________
global_average_pooling2d (Gl (None, 512)               0         
_________________________________________________________________
dense (Dense)                (None, 128)               65664     
_________________________________________________________________
dropout (Dropout)            (None, 128)               0         
_________________________________________________________________
dense_1 (Dense)              (None, 128)               16512     
_________________________________________________________________
dropout_1 (Dropout)          (None, 128)               0         
_________________________________________________________________
dense_2 (Dense)              (None, 9)                 1161      
=================================================================
Total params: 8,411,401
Trainable params: 8,411,401
Non-trainable params: 0
_________________________________________________________________


Rank: 64
Path: model_lr0.001_dr0.25_ks3_ly4_nd128_augFalse_balTrue\model_lr0.001_dr0.25_ks3_ly4_nd128_augFalse_balTrue.h5
f1: 0.8480351670703351
Model
Model: "sequential_4"
_________________________________________________________________
Layer (type)                 Output Shape              Param #   
=================================================================
conv2d_24 (Conv2D)           (None, 32, 32, 64)        1792      
_________________________________________________________________
conv2d_25 (Conv2D)           (None, 32, 32, 64)        36928     
_________________________________________________________________
max_pooling2d_8 (MaxPooling2 (None, 16, 16, 64)        0         
_________________________________________________________________
conv2d_26 (Conv2D)           (None, 16, 16, 128)       73856     
_________________________________________________________________
conv2d_27 (Conv2D)           (None, 16, 16, 128)       147584    
_________________________________________________________________
max_pooling2d_9 (MaxPooling2 (None, 8, 8, 128)         0         
_________________________________________________________________
conv2d_28 (Conv2D)           (None, 8, 8, 256)         295168    
_________________________________________________________________
conv2d_29 (Conv2D)           (None, 8, 8, 256)         590080    
_________________________________________________________________
max_pooling2d_10 (MaxPooling (None, 4, 4, 256)         0         
_________________________________________________________________
conv2d_30 (Conv2D)           (None, 4, 4, 512)         1180160   
_________________________________________________________________
conv2d_31 (Conv2D)           (None, 4, 4, 512)         2359808   
_________________________________________________________________
global_average_pooling2d_4 ( (None, 512)               0         
_________________________________________________________________
dense_12 (Dense)             (None, 128)               65664     
_________________________________________________________________
dropout_8 (Dropout)          (None, 128)               0         
_________________________________________________________________
dense_13 (Dense)             (None, 128)               16512     
_________________________________________________________________
dropout_9 (Dropout)          (None, 128)               0         
_________________________________________________________________
dense_14 (Dense)             (None, 9)                 1161      
=================================================================
Total params: 4,768,713
Trainable params: 4,768,713
Non-trainable params: 0
_________________________________________________________________


Rank: 65
Path: model_lr0.001_dr0.5_ks3_ly3_nd512_augFalse_balFalse\model_lr0.001_dr0.5_ks3_ly3_nd512_augFalse_balFalse.h5
f1: 0.8476773018964628
Model
Model: "sequential_10"
_________________________________________________________________
Layer (type)                 Output Shape              Param #   
=================================================================
conv2d_64 (Conv2D)           (None, 32, 32, 64)        1792      
_________________________________________________________________
conv2d_65 (Conv2D)           (None, 32, 32, 64)        36928     
_________________________________________________________________
max_pooling2d_22 (MaxPooling (None, 16, 16, 64)        0         
_________________________________________________________________
conv2d_66 (Conv2D)           (None, 16, 16, 128)       73856     
_________________________________________________________________
conv2d_67 (Conv2D)           (None, 16, 16, 128)       147584    
_________________________________________________________________
max_pooling2d_23 (MaxPooling (None, 8, 8, 128)         0         
_________________________________________________________________
conv2d_68 (Conv2D)           (None, 8, 8, 256)         295168    
_________________________________________________________________
conv2d_69 (Conv2D)           (None, 8, 8, 256)         590080    
_________________________________________________________________
global_average_pooling2d_10  (None, 256)               0         
_________________________________________________________________
dense_30 (Dense)             (None, 512)               131584    
_________________________________________________________________
dropout_20 (Dropout)         (None, 512)               0         
_________________________________________________________________
dense_31 (Dense)             (None, 512)               262656    
_________________________________________________________________
dropout_21 (Dropout)         (None, 512)               0         
_________________________________________________________________
dense_32 (Dense)             (None, 9)                 4617      
=================================================================
Total params: 1,544,265
Trainable params: 1,544,265
Non-trainable params: 0
_________________________________________________________________


Rank: 66
Path: model_20201119_131204\model4.h5
f1: 0.8224058979686664
Model
Model: "sequential"
_________________________________________________________________
Layer (type)                 Output Shape              Param #   
=================================================================
conv2d (Conv2D)              (None, 32, 32, 32)        896       
_________________________________________________________________
conv2d_1 (Conv2D)            (None, 32, 32, 32)        9248      
_________________________________________________________________
max_pooling2d (MaxPooling2D) (None, 16, 16, 32)        0         
_________________________________________________________________
conv2d_2 (Conv2D)            (None, 16, 16, 16)        4624      
_________________________________________________________________
conv2d_3 (Conv2D)            (None, 16, 16, 16)        2320      
_________________________________________________________________
max_pooling2d_1 (MaxPooling2 (None, 8, 8, 16)          0         
_________________________________________________________________
conv2d_4 (Conv2D)            (None, 8, 8, 8)           1160      
_________________________________________________________________
conv2d_5 (Conv2D)            (None, 8, 8, 8)           584       
_________________________________________________________________
max_pooling2d_2 (MaxPooling2 (None, 4, 4, 8)           0         
_________________________________________________________________
dropout (Dropout)            (None, 4, 4, 8)           0         
_________________________________________________________________
flatten (Flatten)            (None, 128)               0         
_________________________________________________________________
dense (Dense)                (None, 128)               16512     
_________________________________________________________________
dense_1 (Dense)              (None, 9)                 1161      
=================================================================
Total params: 36,505
Trainable params: 36,505
Non-trainable params: 0
_________________________________________________________________


